DED_Net/checkpoint/LIS-Net_param.pth (torch, 139015 bytes, 23 tensors)

e_conv1.weight f4 [16, 1, 3, 3]
-0.007816715 -0.0073521445 -0.00697994 -0.007912334 -0.0064760847 -0.006736158 -0.009491222 -0.010181122
-0.009968912 -0.007937131 0.0019868766 0.0002944337 0.00043452706 0.0028301275 0.0013102418 0.0006357336
0.0014883287 0.0014821211 -0.1782422 -0.10802565 -0.16458084 -0.12910178 0.12055376 0.23821309
-0.073935695 0.035244882 -0.044656005 0.28978696 0.19638188 0.01896615 0.2847879 -0.066140644
0.17797577 -0.17199437 -0.13106996 0.028480824 -0.029375192 -0.0072603896 -0.08514131 -0.18480046
0.188424 0.019141858 -0.058100432 -0.26554567 -0.0272616 -0.011456967 -0.019742057 -0.017078945
-0.021128472 -0.016209869 -0.016362201 -0.017398028 -0.020652268 -0.030664142 -0.1966349 0.17355198
0.27942854 -0.006388286 0.31872824 0.14109248 -0.33688867 -0.14406534 -0.1994663 0.30202833
0.018884705 0.13601515 -0.10211807 0.29057246 0.1631422 0.27184466 0.24172047 0.26092908
-0.0070844605 -0.0050951825 -0.0074870344 -0.007223267 -0.010778213 -0.009216491 0.00018884413 -0.007831739
-0.018577354 -0.1519176 0.29738405 0.26780108 -0.11322138 -0.042439185 0.09131041 0.267297
-0.29993543 -0.3402302 -0.32503092 -0.03102178 -0.24829575 0.3083133 0.3012566 -0.21284346
-0.099572 0.28971496 -0.019281873 -0.12810864 0.25114194 -0.057855383 0.005164651 0.14947686
-0.26949468 -0.15859109 -0.13606277 -0.014855292 0.09059135 0.25386485 -0.24386397 0.21010526
0.3105455 0.070927836 -0.1692329 0.24668753 -0.1116002 -0.030000465 -0.11746304 -0.019718023
0.08533243 0.020919919 -0.07105998 -0.015209961 -0.21500695 -0.20221381 -0.2125862 0.1600818
0.24702801 -0.0223893 -0.21773939 0.18505484 -0.14955746 -0.17600808 -0.13757692 0.110192925
-0.34158775 -0.124272995 0.18477158 -0.08940323 -0.1735719 -0.23323926 -0.07547922 0.23326543
00000000: ae11 00bc 42ea f0bb fbb7 e4bb bca2 01bc
00000010: 5635 d4bb fdba dcbb 1281 1bbc b9ce 26bc
00000020: a654 23bc be0a 02bc 4236 023b 395e 9a39
00000030: 3cd1 e339 a979 393b 6bbc ab3a 5ca7 263a
00000040: 0614 c33a bb43 c23a 2085 36be 8d3c ddbd
00000050: e187 28be 4233 04be e4e4 f63d 22ee 733e
00000060: 996b 97bd f05c 103d 37e9 36bd f55e 943e
00000070: 5518 493e e65e 9b3c b8cf 913e bf74 87bd
00000080: 483f 363e 4b1f 30be 3437 06be 9e50 e93c
00000090: 3ea4 f0bc 90e8 edbb 915e aebd 553c 3dbe
000000a0: 39f2 403e 63cf 9c3c b8fa 6dbd 9af5 87be
000000b0: b853 dfbc 01b6 3bbc 18ba a1bc 25e9 8bbc
000000c0: 9e15 adbc 8fca 84bc 060a 86bc 4f86 8ebc
000000d0: f22e a9bc 5e33 fbbc a95a 49be 9cb7 313e
000000e0: 4211 8f3e d454 d1bb 5930 a33e 8c7a 103e
000000f0: ac7c acbe dd85 13be e540 4cbe 75a3 9a3e
00000100: 19b4 9a3c 8e47 0b3e 4723 d1bd eac5 943e
00000110: c00e 273e 392f 8b3e 9285 773e 7f98 853e
00000120: c324 e8bb 7df5 a6bb cc55 f5bb 28b1 ecbb
00000130: 1a97 30bc c400 17bc 7604 4639 b250 00bc
00000140: 892f 98bc 4a90 1bbe b942 983e 391d 893e
00000150: 9ce0 e7bd b6d4 2dbd f400 bb3d 27db 883e
00000160: 2391 99be a732 aebe 746a a6be 6321 febc
00000170: 3e41 7ebe 3edb 9d3e 4e3e 9a3e a3f3 59be
00000180: 68ec cbbd 8555 943e 05f5 9dbc e92e 03be
00000190: ad95 803e c4f9 6cbd 3c3c a93b 7610 193e
000001a0: 35fb 89be b465 22be 0a54 0bbe 9c63 73bc
000001b0: f587 b93d 93fa 813e 7ab7 79be d525 573e
000001c0: d2ff 9e3e 9d42 913d 644b 2dbe a89b 7c3e
000001d0: a58e e4bd 89c3 f5bc 7690 f0bd b187 a1bc
000001e0: c5c2 ae3d 4060 ab3c e587 91bd 3333 79bc
000001f0: c82a 5cbe 2311 4fbe 32b0 59be 7cec 233e
00000200: e9f4 7c3e c469 b7bc 13f7 5ebe 047f 3d3e
00000210: 9725 19be 763b 34be f7e0 0cbe d4ac e13d
00000220: 97e4 aebe d782 febd c334 3d3e 0a19 b7bd
00000230: d5bc 31be 46d6 6ebe d994 9abd 22dd 6e3e

e_conv1.bias f4 [16]
-0.008204435 -0.0074048755 0.15972024 0.3035279 0.052362926 -0.034287293 0.052391417 -0.0014000505
-0.024742518 0.0011417593 0.0047172224 0.20145132 -0.17648822 0.1550933 0.23122573 0.24218632
00000000: e56b 06bc 99a4 f2bb b48d 233e 0268 9b3e
00000010: 827a 563d d570 0cbd 6298 563d e681 b7ba
00000020: d2b0 cabc 16a7 953a ee92 9a3b 4149 4e3e
00000030: 54b9 34be c7d0 1e3e 70c6 6c3e b1ff 773e

e_conv2.weight f4 [16, 16, 3, 3]
-0.0015969077 -0.00154448 -0.0014645676 -0.001001046 -0.002325696 -0.00068545825 -0.00040942588 -0.0020835116
-0.0013820891 1.6503875e-05 -3.094011e-05 2.604004e-05 7.9287265e-06 2.3322462e-05 2.5404823e-05 -2.9397554e-05
8.345989e-06 -3.2125896e-05 -0.009524689 -0.009569369 -0.009553774 -0.008998296 -0.009088394 -0.008882164
-0.009824558 -0.009587987 -0.009722146 -0.020717632 -0.010273116 -0.013995809 -0.0049198326 -0.0054762545
-0.01975394 -0.0049101417 -0.017521597 -0.0068982523 -0.000507886 -0.0004936865 7.132667e-05 -3.637871e-05
-6.8011235e-05 -0.0005019685 -0.00049595104 -0.00025778753 0.00014393691 -0.00052066584 0.00019558199 -0.0005398261
0.00015088651 -0.0006167209 0.00021752884 0.00019926256 0.00020228923 0.00021788027 -0.009419507 -0.009358117
-0.009596353 -0.009134994 -0.008706888 -0.009385853 -0.009248619 -0.00933457 -0.009355256 -0.017750567
-0.013863729 -0.009250513 -0.0075275204 -0.013493668 -0.0024413015 -0.0048749642 -0.010109671 -0.012766969
-0.00035156787 0.00013480367 0.0001419277 -0.000104018596 -0.0003791396 0.00013683314 -7.974293e-05 -8.923321e-05
0.0001412334 -0.0008520696 -0.0008922648 -0.00092878577 -0.0006218475 -0.00065472623 -0.0007211458 -0.000569473
-0.00052385876 -0.00057809567 0.0006920622 0.00048120954 0.0005737228 -0.00011988925 0.00014051076 -1.23910795e-05
-6.433741e-05 0.00034349327 -0.00034976684 -0.010920271 -0.010880427 -0.010827721 -0.01046597 -0.010434967
-0.010388313 -0.010319596 -0.010351178 -0.010298217 -0.003200399 -0.0031167383 -0.0032031871 -0.0028274392
-0.0027701978 -0.0028745036 -0.0027726686 -0.0026774385 -0.0028883058 -0.0078691365 -0.007866193 -0.007843705
-0.0077349823 -0.007717123 -0.0077221594 -0.0072840727 -0.0073325043 -0.007849808 -0.011470784 -0.011561616
-0.011626457 -0.01095722 -0.011031835 -0.0110146 -0.010710915 -0.010771009 -0.010767937 -0.0105711045
-0.010688095 -0.010575868 -0.010073879 -0.01007422 -0.009964675 -0.010615809 -0.010550573 -0.010514354
0.001566908 0.0015960449 0.0017774884 0.0015189233 0.0015675786 0.0017778209 0.0016153251 0.0016690716
0.0018649421 -2.5687417e-05 -1.6428e-05 -6.210815e-06 -2.2787943e-05 -4.782482e-06 2.5660383e-06 -4.8262364e-06
7.4492245e-06 2.1087197e-05 0.046411317 -0.051181737 0.01636833 0.038557563 -0.03391391 0.010610641
0.014807763 0.04806858 -0.04877271 0.038200993 -0.05755221 0.029016444 0.0087855635 -0.04488205
-0.0018365056 -0.009200878 0.03763541 -0.0050456184 0.0032422 0.006789844 0.004454734 0.0028485327
0.0061708926 0.0060886494 0.0024881414 0.0048872777 0.006991321 0.010278186 0.010236413 0.0103168925
0.010187503 0.01018707 0.010314754 0.010230631 0.010208695 0.010335972 0.0056471955 -0.039298892
0.0606234 -0.0022817357 0.011196831 0.034074023 -0.02189459 -0.02113429 -0.017197218 0.045441233
0.035477888 0.033937868 -0.004411488 -0.074382365 -0.06704611 0.0024469418 0.013849911 -0.07036854
0.00015508015 0.00012999872 1.6910442e-05 0.00016774972 0.00011622017 2.4872566e-05 0.00017130669 0.00010445213
3.0951545e-05 -0.094174325 -0.08573808 -0.09910562 -0.11943289 -0.11316588 -0.13399006 -0.18360914
-0.1639135 -0.1687254 -0.098539256 -0.12035743 -0.12231838 -0.07410742 -0.08669287 -0.10589856
-0.056907635 -0.04327231 -0.09035786 -0.04073268 0.057314645 0.00030639386 -0.033304527 0.06454307
-0.02708805 -0.025115333 -0.017906612 -0.018887458 -0.06267902 -0.00910443 -0.0100608235 0.0035524007
00000000: 554f d1ba 2670 caba bcf6 bfba 8835 83ba
00000010: b46a 18bb 53b0 33ba 36a8 d6b9 868b 08bb
00000020: 3727 b5ba cd71 8a37 b1c5 01b8 8f70 da37
00000030: 9f05 0537 9ba4 c337 711c d537 c49a f6b7
00000040: c005 0c37 ebbe 06b8 710d 1cbc d8c8 1cbc
00000050: 6f87 1cbc 976d 13bc 7de7 14bc 7f86 11bc
00000060: 2ff7 20bc ef16 1dbc a349 1fbc 06b8 a9bc
00000070: 9250 28bc ad4e 65bc 8c36 a1bb 2772 b3bb
00000080: 04d3 a1bc 41e5 a0bb 7489 8fbc bc0a e2bb
00000090: a723 05ba bd6a 01ba 3795 9538 5895 18b8
000000a0: 41a1 8eb8 8996 03ba b602 02ba a827 87b9
000000b0: c5ed 1639 4b7d 08ba 2415 4d39 1e83 0dba
000000c0: 4a37 1e39 70ab 21ba 7418 6439 23f1 5039
000000d0: 9a1d 5439 ca76 6439 4754 1abc ca52 19bc
000000e0: 063a 1dbc f1aa 15bc 56a7 0ebc 1fc7 19bc
000000f0: 8587 17bc 06f0 18bc ca46 19bc a369 91bc
00000100: b224 63bc 778f 17bc 6ba9 f6bb 8c14 5dbc
00000110: 3efe 1fbb 2abe 9fbb 09a3 25bc 8d2c 51bc
00000120: a452 b8b9 165a 0d39 6dd2 1439 8f24 dab8
00000130: 41c7 c6b9 de7a 0f39 a93b a7b8 b722 bbb8
00000140: 0d18 1439 6c5d 5fba e1e6 69ba c279 73ba
00000150: 7b03 23ba efa1 2bba 470b 3dba b048 15ba
00000160: 9153 09ba 588b 17ba 826b 353a da4a fc39
00000170: e365 163a 0d6d fbb8 1256 1339 48e3 4fb7
00000180: e2ec 86b8 e316 b439 e960 b7b9 f0ea 32bc
00000190: d243 32bc c166 31bc 7679 2bbc 6cf7 2abc
000001a0: be33 2abc 8613 29bc fd97 29bc dab9 28bc
000001b0: c9bd 51bb 3142 4cbb 90ec 51bb 8f4c 39bb
000001c0: 358c 35bb 2b62 3cbb a9b5 35bb f777 2fbb
000001d0: bb49 3dbb 8ded 00bc 34e1 00bc e282 00bc
000001e0: bc75 fdbb ebdf fcbb 2b0a fdbb 3baf eebb
000001f0: 8145 f0bb 7b9c 00bc f5ef 3bbc ef6c 3dbc
00000200: e57c 3ebc e985 33bc dfbe 34bc 9576 34bc
00000210: d57c 2fbc e378 30bc 006c 30bc 6d32 2dbc
00000220: 1f1d 2fbc 6846 2dbc e90c 25bc 570e 25bc
00000230: e042 23bc eeed 2dbc 4fdc 2cbc 6644 2cbc
00000240: b560 cd3a 6132 d13a 9dfa e83a 9c16 c73a
00000250: 3677 cd3a c505 e93a 51b9 d33a c0c4 da3a
00000260: 1371 f43a 4f7b d7b7 ddce 89b7 7f66 d0b6
00000270: bc28 bfb7 3579 a0b6 3434 2c36 0ef1 a1b6
00000280: 5af4 f936 69e4 b037 cb19 3e3d f1a3 51bd
00000290: e016 863c 89ee 1d3d 50e9 0abd 41d8 2d3c
000002a0: 429c 723c 8fe3 443d e5c5 47bd a578 1c3d
000002b0: debb 6bbd e5b3 ed3c 53f1 0f3c 3ed6 37bd
000002c0: e7b6 f0ba 48bf 16bc 9627 1a3d b755 a5bb
000002d0: 177b 543b 577d de3b 04f9 913b 73ae 3a3b
000002e0: 3335 ca3b 4b83 c73b 1610 233b 7525 a03b
000002f0: 7417 e53b d665 283c a1b6 273c 2f08 293c
00000300: 7ce9 263c abe7 263c 37ff 283c 609e 273c
00000310: 5f42 273c 3558 293c 1c0c b93b e0f7 20bd
00000320: 3e50 783d 2c89 15bb ea72 373c 3491 0b3d
00000330: 495c b3bc d221 adbc 2ee1 8cbc 9620 3a3d
00000340: 4351 113d 6f02 0b3d 3e8e 90bb c855 98bd
00000350: 794f 89bd df5c 203b bdea 623c 621d 90bd
00000360: 039d 2239 4450 0839 e6da 8d37 f9e5 2f39
00000370: 3bbb f338 6ea5 d037 caa0 3339 4f0d db38
00000380: f8d1 0138 78de c0bd 7297 afbd e3f7 cabd
00000390: 3b99 f4bd 83c3 e7bd b134 09be 0904 3cbe
000003a0: f1d8 27be 5ac6 2cbe f3ce c9bd f57d f6bd
000003b0: 0f82 fabd a2c5 97bd 088c b1bd 58e1 d8bd
000003c0: fb17 69bd 4e3e 31bd 8b0d b9bd 50d7 26bd
000003d0: c3c2 6a3d 7da3 a039 546a 08bd 282f 843d
000003e0: c2e7 ddbc acbe cdbc e3b0 92bc dfb9 9abc
000003f0: dc5d 80bd bf2a 15bc 27d6 24bc 65cf 683b

e_conv2.bias f4 [16]
-0.013449593 0.070683554 -0.00687352 0.059193287 0.0046845097 -0.0022558235 -0.005308003 0.06140524
0.10302753 -0.04378 -0.007051621 -0.018724568 0.07686267 -0.0068282345 0.021794 -0.030322624
00000000: af5b 5cbc 8ac2 903d 443b e1bb a974 723d
00000010: 8480 993b 70d6 13bb c2ee adbb 1084 7b3d
00000020: 1900 d33d a852 33bd 4911 e7bb 4464 99bc
00000030: 2d6a 9d3d 62bf dfbb 5589 b23c 2767 f8bc

e_conv3.weight f4 [16, 16, 3, 3]
-0.008901225 -0.008881223 -0.008758197 -0.010661559 -0.010527882 -0.010578321 -0.010297192 -0.010112565
-0.010351555 0.035393126 0.015738154 0.020738224 -0.04577267 0.054803792 -0.025304014 -0.05620031
-0.055267163 0.06932623 -6.9766196e-05 -7.7850535e-05 3.598144e-05 3.6203185e-06 -8.929572e-05 -0.00015484435
0.00014183052 -4.7858273e-05 -8.754427e-05 0.044176195 0.030196937 -0.049614877 0.022326594 0.056632146
0.04427391 0.013183764 0.05981054 0.01923172 0.0110405125 0.005235752 0.013029656 0.0042116116
0.023479111 0.011923302 0.008079216 0.01383192 0.0014571188 0.04190235 0.064075604 0.03725384
0.054755773 0.06730721 0.04665979 0.05934838 0.060113452 0.04269296 0.0678331 0.023650695
0.08001502 0.063864924 0.048441093 0.07790536 0.058848497 0.05811556 0.054356992 -0.0034665642
0.089783944 0.033564106 0.05219587 -0.017215963 -0.029348582 0.034049463 0.076788865 0.03304464
0.025965532 -0.03958345 -0.046144426 0.09360129 -0.019562243 0.032926414 -0.040160544 0.09617367
0.061858952 0.033181086 0.018246276 0.0038035524 -0.047445554 0.021662362 -0.037056256 -0.053196903
0.062017754 0.011198136 0.00019628722 0.00065588177 0.0002898007 8.863203e-06 0.0011481897 0.0008508092
0.00089187117 -0.00019231638 0.00027457907 0.06116768 -0.035484422 0.0021768294 -0.0029886155 -0.011402586
0.0006391947 -0.009136647 -0.002090926 0.038559735 -0.04353649 -0.023807159 -0.06416338 0.0931169
0.0397516 0.0780011 -0.006488542 0.023142148 0.024179017 0.014262999 -0.0011146481 0.011785317
0.0150273675 0.0056173936 -0.011503336 0.0057103904 0.0011629891 -0.0070347297 0.029136654 0.07303876
0.015501907 -0.00521451 0.009590792 0.0748357 0.027724309 0.023492139 0.060299084 0.06011428
0.041412637 -0.019326517 0.054466717 0.0070792865 -0.065004505 -0.013013021 -0.07024206 0.04547118
9.305232e-06 -1.4023063e-05 7.166055e-06 -1.9529552e-06 9.5852765e-06 -1.19703545e-05 -3.082507e-07 -1.2657076e-05
9.4924735e-06 -0.00087223237 0.0014068795 -0.0037549427 -0.002403748 -0.00052178686 -0.00016657182 -0.0040482995
-0.0045052906 -0.000642074 8.5511226e-07 1.0618246e-06 5.530751e-07 6.8267406e-07 5.876996e-07 6.1291246e-07
1.0058736e-06 1.0316735e-06 8.7270377e-07 -0.0006552905 -0.0026905353 -0.00071442453 -0.0007561905 -0.0003558342
-0.0007488595 -0.0007147433 -0.00082723494 -0.0008023784 4.2590202e-07 -4.0845944e-07 -4.37538e-07 2.0812908e-07
2.1025232e-07 2.5526919e-07 1.9837631e-07 1.7135554e-07 2.7030723e-07 -1.5439622e-05 -1.7568445e-05 -1.6519913e-05
-1.742442e-05 -1.884693e-05 -1.696654e-05 -1.857905e-05 -1.936995e-05 -1.6539607e-05 -6.8676154e-06 -9.064935e-06
-1.0172381e-05 -3.0004555e-06 -5.3551244e-06 -4.259737e-06 -4.689318e-06 -7.1480713e-06 -7.648129e-06 -0.0007932788
-0.00053037336 0.0004345666 -0.0026713249 -0.00058176875 -0.00028844763 -0.004095705 0.00032590242 -0.0015735081
-0.00058354496 0.005355491 -0.006708998 0.0032848665 -0.0007449038 -0.00075023615 -0.0010702882 -0.001000758
0.00033938614 -0.00066860096 -0.0004251271 -0.00044984082 -0.0031701876 -0.00302438 -0.0041352664 -0.00095006434
0.0020389047 -0.0011432596 1.2683877e-07 1.198546e-07 2.018049e-07 1.04396946e-07 9.9243216e-08 2.0160233e-07
1.5672232e-07 1.5436183e-07 4.8562672e-08 -0.0014770379 -0.0014476763 -0.005718789 -0.0014227242 -0.0039334605
-0.001288282 -0.0013838207 -0.0013419829 -0.0012662832 -0.0007855661 -0.0007131826 -0.005797698 -0.0057137725
00000000: 72d6 11bc 8d82 11bc 8a7e 0fbc d2ad 2ebc
00000010: 237d 2cbc b250 2dbc 8eb5 28bc 2caf 25bc
00000020: 9299 29bc 62f8 103d 4ded 803c 35e3 a93c
00000030: 207c 3bbd f179 603d 5d4a cfbc 4c32 66bd
00000040: d25f 62bd e9fa 8d3d 714f 92b8 b043 a3b8
00000050: c7ea 1638 99f4 7236 4644 bbb8 b75d 22b9
00000060: 57b8 1439 6ebb 48b8 f997 b7b8 19f2 343d
00000070: 915f f73c f838 4bbd 43e6 b63c 1cf7 673d
00000080: 8f58 353d b700 583c e6fb 743d d78b 9d3c
00000090: 44e3 343c ac90 ab3b 577a 553c 8f01 8a3b
000000a0: 4457 c03c f459 433c b05e 043c 479f 623c
000000b0: cbfc be3a cca1 2b3d 123a 833d 7c97 183d
000000c0: 9747 603d 5dd8 893d 561e 3f3d 4917 733d
000000d0: 8639 763d d0de 2e3d 15ec 8a3d 1abf c13c
000000e0: eade a33d 9dcb 823d 2b6a 463d d88c 9f3d
000000f0: 1f0b 713d 950a 6e3d 70a5 5e3d 4c2f 63bb
00000100: a5e0 b73d 847a 093d 56cb 553d 7e08 8dbc
00000110: 706c f0bc 7377 0b3d 7b43 9d3d d159 073d
00000120: abb5 d43c 4122 22bd f001 3dbd 08b2 bf3d
00000130: ff40 a0bc d9dd 063d 627f 24bd b3f6 c43d
00000140: d05f 7d3d e4e8 073d 3779 953c 0545 793b
00000150: 4556 42bd 4475 b13c 4dc8 17bd ffe4 59bd
00000160: 5406 7e3d 6378 373c 73d2 4d39 7bef 2b3a
00000170: 64f0 9739 2bb3 1437 da7e 963a d708 5f3a
00000180: 76cc 693a 89a8 49b9 61f5 8f39 f68a 7a3d
00000190: 1d58 11bd 23a9 0e3b a6dc 43bb e9d1 3abc
000001a0: a18f 273a e0b1 15bc eb07 09bb d0f0 1d3d
000001b0: 5253 32bd 3b07 c3bc 1768 83bd 13b4 be3d
000001c0: 93d2 223d 0abf 9f3d d69d d4bb 9a94 bd3c
000001d0: 1313 c63c 5baf 693c 6219 92ba 3417 413c
000001e0: 5935 763c 1d12 b83b 7d78 3cbc 3a1e bb3b
000001f0: 706f 983a 9783 e6bb feaf ee3c 5895 953d
00000200: b6fb 7d3c 7bde aabb b222 1d3c 7643 993d
00000210: 171e e33c 9672 c03c 2cfc 763d 643a 763d
00000220: 4ca0 293d a552 9ebc 7e18 5f3d 5cf9 e73b
00000230: 1521 85bd 9134 55bc 12db 8fbd fd3f 3a3d
00000240: ab1d 1c37 9944 6bb7 f273 f036 840f 03b6
00000250: 73d0 2037 48d4 48b7 a77d a5b4 ba59 54b7
00000260: dd41 1f37 86a6 64ba 0b67 b83a 7c15 76bb
00000270: 3388 1dbb 86c8 08ba c8a9 2eb9 99a7 84bb
00000280: 1ea1 93bb db50 28ba de8a 6535 0484 8e35
00000290: 0877 1435 0141 3735 69c2 1d35 0687 2435
000002a0: 8e01 8735 0878 8a35 bf43 6a35 cdc7 2bba
000002b0: b153 30bb 3848 3bba 163b 46ba 428f bab9
000002c0: 1c4f 44ba 9c5d 3bba ccda 58ba b456 52ba
000002d0: 87a7 e434 3d4a dbb4 c4e6 eab4 167a 5f34
000002e0: b8c1 6134 ee0b 8934 4401 5534 dafd 3734
000002f0: be1e 9134 5684 81b7 f35f 93b7 3e94 8ab7
00000300: a82a 92b7 7919 9eb7 5e53 8eb7 35da 9bb7
00000310: a77c a2b7 89be 8ab7 5e70 e6b6 9915 18b7
00000320: 0baa 2ab7 6f5b 49b6 2bb0 b3b6 ddee 8eb6
00000330: ef58 9db6 77d9 efb6 7750 00b7 0af4 4fba
00000340: c108 0bba 8bd6 e339 6511 2fbb d781 18ba
00000350: c93a 97b9 4435 86bb e2dd aa39 2c3e ceba
00000360: 0af9 18ba 1d7d af3b 27d7 dbbb ea46 573b
00000370: a645 43ba 7fab 44ba ea48 8cba de2b 83ba
00000380: a3ef b139 0d45 2fba 98e3 deb9 9dd8 ebb9
00000390: ecc2 4fbb ad34 46bb 2181 87bb bd0d 79ba
000003a0: 259f 053b 6dd9 95ba 2d31 0834 62b1 0034
000003b0: b5af 5834 d430 e033 891f d533 0778 5834
000003c0: 8147 2834 a8be 2534 3993 5033 2b99 c1ba
000003d0: f5bf bdba ae64 bbbb b47a baba 42e4 80bb
000003e0: 92db a8ba 5161 b5ba 79e5 afba 6af9 a5ba
000003f0: 73ee 4dba e0f4 3aba 9efa bdbb 993a bbbb

e_conv3.bias f4 [16]
0.06430011 0.0005638838 0.0061824056 0.00093597826 -0.015535888 -0.017157711 0.020322604 0.07442827
0.052747082 -0.011354471 0.052273735 0.008059993 0.019541046 -0.04260782 -0.052984096 -0.0032742515
00000000: c7af 833d 9ad1 133a c795 ca3b 705c 753a
00000010: 3d8a 7ebc 548e 8cbc 977b a63c d96d 983d
00000020: 530d 583d 1a08 3abc fc1c 563d 100e 043c
00000030: 8b14 a03c 8a85 2ebd da05 59bd d394 56bb

e_conv4.weight f4 [16, 16, 3, 3]
-0.0012946927 -0.0012956032 -0.001333275 -0.0012350235 -0.001282497 -0.0012724423 -0.0013067573 -0.0013088953
-0.0012119153 -1.6611602e-07 5.998635e-05 2.1812251e-05 2.2582258e-06 0.00010164547 1.8170206e-06 2.6978705e-06
-2.3238154e-06 -6.34521e-06 9.1108495e-06 -1.5194486e-06 1.0933805e-05 3.4757733e-07 5.590544e-06 -0.000104469174
3.9240167e-06 7.853452e-06 8.406815e-06 -3.626575e-05 -5.4297765e-05 -5.02411e-05 -0.00014167756 -4.704891e-05
-0.00021656405 -0.00019834432 -0.00010979929 -0.00010667497 0.00019559568 0.00019571555 0.00016032702 0.0001945225
0.00018691162 0.00015265237 0.00017229568 0.0001555323 0.00012182087 0.00011468578 0.00013185503 0.00013872601
0.00012079927 0.000121826604 0.00016839834 0.00017982349 0.00018388063 0.00011968 0.00026007975 0.00021342853
0.00046301686 0.0001943317 0.00020017274 0.0005139661 0.000500101 0.00018635608 0.00013419124 0.00034963287
0.0002910776 0.00026376013 0.00033431716 0.00024374144 0.0002047355 0.00026004782 0.0001339598 0.00024812552
-0.0049947225 -0.005212424 -0.0052710865 -0.005238958 -0.0055394927 -0.0054848455 -0.0053819884 -0.0055886735
-0.0055357735 9.469364e-06 6.4247347e-06 2.2041002e-06 8.9843925e-06 8.629926e-06 -1.991158e-07 -6.197791e-08
2.0842992e-06 3.781045e-08 0.0006325132 0.0006668164 0.00073135126 0.0006515513 0.00071084825 0.0007700876
0.0007023771 0.0007608421 0.00079666264 -0.00255128 -0.0027851812 -0.0028573577 -0.0027987289 -0.0030121948
-0.002989866 -0.0029967015 -0.0031450621 -0.0030378986 -0.0021973075 -0.002446105 -0.0023920666 -0.0023366194
-0.0025179794 -0.0024632383 -0.0024044514 -0.0025386119 -0.0024627561 0.00017452538 0.00017671322 0.00016659543
0.00017535116 0.00017507213 0.00015378381 0.0001633234 0.00015677232 0.0001361362 9.620823e-05 9.8035045e-05
9.3612914e-05 0.000103779035 0.00010277193 8.902161e-05 0.000106061816 0.00010063339 8.852459e-05 4.352764e-05
7.4489105e-07 6.59276e-07 1.336147e-07 4.950215e-07 1.6965151e-07 8.8321787e-07 1.301615e-07 6.4281954e-07
0.042574413 0.037323337 -0.0342436 -0.019633599 -0.0030169964 0.052668836 0.03667856 -0.05023295
0.038545642 -4.3334643e-05 -1.7749122e-05 -0.00010461559 2.1923897e-05 -0.00013839401 -2.1794944e-05 -1.710049e-05
-2.0678352e-05 2.5414005e-05 0.00015364305 0.0003483671 -7.570426e-05 0.00025525427 0.0002558335 -0.00022814026
0.00030430395 6.445465e-05 -0.00018786246 -8.273934e-05 -7.169919e-05 -3.4929875e-05 -6.3037885e-05 -4.847097e-05
-5.589703e-05 -8.288193e-05 -7.0985385e-05 -5.2477295e-05 -0.013912412 0.0017959231 0.01283162 -0.013355851
-0.008405805 -0.022102779 0.011847446 -0.006824589 -0.0064318473 -0.03557335 -0.029848546 -0.0036580057
0.021268776 0.005073762 -0.0019172225 -0.015855532 0.034015857 0.0029549438 0.0014614585 8.704526e-05
-0.0012678609 0.0010848487 -0.0008232832 -0.0015699025 0.00041310067 -0.0013797282 -0.0012437085 0.030673876
-0.034625202 -0.015044114 -0.047110334 0.0065836776 -0.031770516 -0.026597705 -0.013995355 0.036835447
-0.009130194 -0.0076235235 -0.034832124 -0.047969323 0.008164026 0.043181527 -0.053735822 0.061072692
-0.005526336 -0.00016256675 -0.00014925434 -0.00017093761 -0.00013370873 -0.00015550565 -0.00016209591 -0.00013980317
-0.00016175753 -0.00017035089 0.016153513 0.018440489 0.026905557 -0.014297379 -0.046120837 -0.006888833
0.016240653 0.011828203 0.041355874 0.05287603 -0.02808771 0.045818463 0.017311234 -0.002559194
-0.043732334 -0.057222232 0.02608524 -0.010523952 -0.04353131 0.03943293 0.053213283 -0.033876177
00000000: aeb2 a9ba 3bd1 a9ba 49c1 aeba 83e0 a1ba
00000010: 7519 a8ba 14c8 a6ba 8047 abba 3d8f abba
00000020: 21d9 9eba a05d 32b4 da99 7b38 74f9 b637
00000030: 068c 1736 7f2a d538 5ae0 f335 100d 3536
00000040: d8f2 1bb6 f0e8 d4b6 cdda 1837 dbef cbb5
00000050: 5670 3737 aa9a ba34 6896 bb36 7616 dbb8
00000060: 0cab 8336 52c2 0337 ff0a 0d37 0d1c 18b8
00000070: c8bd 63b8 f8b9 52b8 488f 14b9 6256 45b8
00000080: 7815 63b9 a6fa 4fb9 0c44 e6b8 b0b6 dfb8
00000090: d118 4d39 fe38 4d39 751d 2839 bcf8 4b39
000000a0: b5fd 4339 4f11 2039 45aa 3439 6216 2339
000000b0: 157a ff38 7683 f038 9142 0a39 fb76 1139
000000c0: 9d55 fd38 297d ff38 1694 3039 008f 3c39
000000d0: 15d0 4039 b6fc fa38 505b 8839 c9cb 5f39
000000e0: 12c1 f239 85c5 4b39 76e5 5139 aebb 063a
000000f0: 3619 033a 9468 4339 b0b5 0c39 ee4e b739
00000100: c69b 9839 4949 8a39 4a47 af39 d894 7f39
00000110: 44ae 5639 0757 8839 8f77 0c39 d816 8239
00000120: c5aa a3bb fbcc aabb 14b9 acbb 91ab abbb
00000130: a284 b5bb 38ba b3bb 645b b0bb 3121 b7bb
00000140: 6f65 b5bb 9cde 1e37 0d94 d736 27ea 1336
00000150: acbb 1637 40c9 1037 89cc 55b4 b718 85b3
00000160: fddf 0b36 0865 2233 3ecf 253a 4bcd 2e3a
00000170: 27b8 3f3a decc 2a3a 3858 3a3a b4df 493a
00000180: bb1f 383a 4073 473a 20d7 503a 6033 27bb
00000190: 9687 36bb 8242 3bbb e16a 37bb 3e68 45bb
000001a0: a1f1 43bb 4f64 44bb 631d 4ebb 7b17 47bb
000001b0: b400 10bb d54e 20bb 38c4 1cbb f821 19bb
000001c0: af04 25bb 486e 21bb 0094 1dbb d75e 26bb
000001d0: 3166 21bb cd00 3739 184c 3939 1fb0 2e39
000001e0: 78de 3739 9193 3739 0741 2139 cb41 2b39
000001f0: 4063 2439 c8bf 0e39 66c3 c938 2a98 cd38
00000200: 0d52 c438 f2a3 d938 4387 d738 1db1 ba38
00000210: 816d de38 240b d338 47a6 b938 7391 3638
00000220: 86f4 4735 1af9 3035 bb77 0f34 9ee1 0435
00000230: 7429 3634 4516 6d35 85c2 0b34 398e 2c35
00000240: 8262 2e3d 5be0 183d 0443 0cbd a4d6 a0bc
00000250: cdb8 45bb 47bb 573d 423c 163d 11c1 4dbd
00000260: 09e2 1d3d 38c2 35b8 f3e3 94b7 1165 dbb8
00000270: 36e9 b737 dc1d 11b9 49d4 b6b7 0673 8fb7
00000280: 6c76 adb7 2930 d537 3e1b 2139 0aa5 b639
00000290: 6ac3 9eb8 a6d3 8539 6421 8639 ef38 6fb9
000002a0: fc8a 9f39 d42b 8738 f2fc 44b9 5884 adb8
000002b0: 365d 96b8 ab81 12b8 3533 84b8 4f4d 4bb8
000002c0: fb72 6ab8 e6d0 adb8 fddd 94b8 111b 5cb8
000002d0: e3f0 63bc 2e65 eb3a b73b 523c 80d2 5abc
000002e0: 80b8 09bc e310 b5bc ca1b 423c cda0 dfbb
000002f0: 3fc2 d2bb 5cb5 11bd f084 f4bc 27bb 6fbb
00000300: db3b ae3c cd41 a63b 504b fbba 76e3 81bc
00000310: 3654 0b3d bba7 413b 698e bf3a 118c b638
00000320: 5a2e a6ba 7b31 8e3a 9ad1 57ba 30c5 cdba
00000330: 6f95 d839 ffd7 b4ba ef03 a3ba c847 fb3c
00000340: 28d3 0dbd 967b 76bc c4f6 40bd e4bb d73b
00000350: cd21 02bd 6ee3 d9bc c64c 65bc c4e0 163d
00000360: cf96 15bc c0ce f9bb 21ac 0ebd 7b7b 44bd
00000370: 68c2 053c 1ddf 303d 181a 5cbd 5c27 7a3d
00000380: 4416 b5bb ae76 2ab9 2881 1cb9 b73d 33b9
00000390: 2a34 0cb9 3b0f 23b9 4af8 29b9 2198 12b9
000003a0: 759d 29b9 38a0 32b9 5f54 843c 8210 973c
000003b0: 0b69 dc3c 8e3f 6abc 34e9 3cbd b8bb e1bb
000003c0: 1e0b 853c 14cb 413c c764 293d 8994 583d
000003d0: 3218 e6bc 24ac 3b3d 4ad0 8d3c 27b8 27bb
000003e0: ad20 33bd dc61 6abd b7b0 d53c a76c 2cbc
000003f0: e34d 32bd 6d84 213d 2cf6 593d bfc1 0abd

e_conv4.bias f4 [16]
-0.013417166 -0.0026639802 0.0018342192 -0.00046663164 -0.009217032 0.010555824 0.03800755 0.00053536944
0.005227146 0.04426592 -0.021535149 0.028653426 0.054917388 -0.03748871 0.0708427 0.05455735
00000000: acd3 5bbc 2c96 2ebb 2f6a f03a 3da6 f4b9
00000010: 0903 17bc 56f2 2c3c cead 1b3d 0958 0c3a
00000020: 7b48 ab3b 2e50 353d 7b6a b0bc 97ba ea3c
00000030: 0ef1 603d c38d 19bd fa15 913d 8777 5f3d

e_conv5.weight f4 [16, 32, 3, 3]
1.6227093e-09 7.810029e-12 9.420051e-12 -3.486982e-09 2.823995e-09 3.866525e-10 1.6974125e-10 -4.6120472e-11
-1.5518642e-11 -4.6199014e-09 -9.465568e-10 -5.6952043e-10 -3.7247945e-09 -1.0417803e-09 -1.9761945e-09 -3.1883538e-09
-2.390636e-09 -4.597283e-09 5.072503e-08 4.9104635e-08 5.956025e-08 5.9511233e-08 6.508354e-08 7.759328e-08
6.086744e-08 6.8603875e-08 8.284e-08 1.0388194e-11 -2.4700844e-10 -2.309551e-10 -1.180677e-10 -1.7732878e-10
-1.3165909e-10 -7.00782e-11 -2.6234037e-10 -1.2279433e-10 -9.919617e-09 -1.1590792e-08 -1.40204275e-08 -1.2057617e-08
-1.4262894e-08 -1.5102847e-08 -1.1454563e-08 -1.15387975e-08 -6.7172943e-09 7.871791e-10 5.535354e-10 1.5220398e-09
7.004192e-10 1.7478148e-09 2.1697928e-09 1.4603491e-09 2.2773041e-09 1.8358207e-09 1.1903745e-08 8.340774e-09
6.835314e-09 8.521421e-09 5.3906986e-09 4.5000434e-09 7.022694e-09 4.5175015e-09 5.389491e-09 1.05589974e-10
2.885614e-10 -5.100201e-11 4.4778833e-10 5.3815598e-11 -9.097173e-11 4.6253812e-10 3.4125697e-10 3.7814243e-10
1.9566662e-10 1.6890192e-10 3.5007364e-10 2.4790747e-09 1.605474e-09 1.1900306e-10 2.5731655e-09 -3.1978872e-10
1.2134094e-09 7.0656526e-08 6.9053996e-08 7.7841676e-08 7.6881946e-08 8.175872e-08 9.2105395e-08 8.034701e-08
8.779317e-08 9.889462e-08 1.3392944e-08 9.906369e-09 -1.07418865e-08 1.4579024e-08 1.3193225e-08 1.6951953e-08
5.1535597e-08 -2.5635781e-08 1.8780108e-08 3.782603e-08 4.429599e-08 5.067782e-08 4.0681925e-08 5.134444e-08
5.7385208e-08 5.1460923e-08 6.172927e-08 6.6639416e-08 1.6735344e-08 2.1370854e-08 2.5447969e-08 1.863989e-08
2.3914819e-08 2.6485113e-08 1.7641167e-08 2.1809457e-08 2.1999117e-08 -8.8146495e-09 -8.243498e-09 -7.642051e-09
-8.237348e-09 -7.117637e-09 -6.834337e-09 -7.258063e-09 -6.3906778e-09 -6.4846075e-09 5.6208027e-08 6.037336e-08
6.367788e-08 5.7122953e-08 6.131215e-08 6.269974e-08 6.1209725e-08 6.4392005e-08 6.281191e-08 6.147363e-08
6.056419e-08 6.591341e-08 7.547164e-08 7.540074e-08 8.240066e-08 7.4348485e-08 7.816354e-08 8.7232664e-08
4.3854186e-08 4.278922e-08 5.217216e-08 5.415533e-08 5.7595297e-08 6.890138e-08 4.9303154e-08 6.013545e-08
6.967753e-08 -5.7288e-13 5.8859134e-10 1.9225047e-10 5.0664325e-12 3.1341388e-10 -1.2441713e-11 1.4453239e-12
-1.28645315e-11 1.6828061e-10 6.987528e-10 2.9500054e-09 1.1981122e-09 1.3540745e-09 2.3854563e-09 4.354324e-09
1.0536509e-09 3.7964702e-09 -3.3020786e-10 -1.0775475e-09 -2.842639e-09 -9.164901e-09 -1.4910126e-08 -1.852574e-09
-1.0391332e-09 -1.1665366e-08 -2.4369642e-09 -1.4904824e-09 1.7946476e-08 1.7187842e-08 1.339212e-08 1.3772063e-08
1.0569603e-08 8.398952e-09 1.0311095e-08 6.450393e-09 5.6505347e-09 -4.0029853e-08 -4.0799385e-08 -4.11446e-08
-3.98534e-08 -3.956483e-08 -3.9570068e-08 -4.0503938e-08 -4.1016175e-08 -4.072293e-08 -2.5492467e-08 -8.23332e-08
1.3198405e-08 -3.759441e-09 -2.4798194e-08 9.556371e-09 2.5775122e-08 7.2848936e-09 -9.459065e-09 3.8544195e-09
4.581151e-09 1.5586343e-08 1.5854928e-08 1.9384425e-08 3.0017112e-08 2.7580876e-08 3.259e-08 4.1089137e-08
6.641926e-08 5.78136e-09 5.7270796e-08 1.4303622e-07 1.7222781e-07 1.832349e-07 1.8656452e-07 1.9823212e-07
2.3229126e-07 -4.6598374e-11 7.1638473e-09 -4.1957923e-11 -5.8397913e-12 1.189e-09 -2.0210729e-11 -6.057252e-11
-1.2222491e-10 8.0983875e-10 -9.080811e-09 -5.068188e-09 -8.050682e-09 -6.4354273e-09 -2.4703215e-09 6.0463895e-10
1.7730596e-10 4.036955e-09 4.0587644e-09 1.3296845e-08 1.1088575e-08 3.8926558e-08 2.3247981e-08 3.3713107e-08
6.166876e-08 4.6746443e-08 6.294049e-08 8.383771e-08 3.388935e-08 4.1836582e-08 6.122206e-08 6.708292e-08
00000000: 0206 df30 3e65 092d 23b8 252d a39f 6fb1
00000010: 3f10 4231 8090 d42f eaa1 3a2f 09d7 4aae
00000020: e080 88ad 15bd 9eb1 0218 82b0 708c 1cb0
00000030: 47f7 7fb1 632e 8fb0 95cd 07b1 1d1a 5bb1
00000040: 8348 24b1 21f6 9db1 c3dc 5933 1ee7 5233
00000050: 30cf 7f33 4b99 7f33 0ec4 8b33 5ba1 a633
00000060: 3bb6 8233 6153 9333 c6e5 b133 44c0 362d
00000070: 59cb 87af 15f0 7daf 1ad1 01af 9df9 42af
00000080: bdc2 10af 851a 9aae 2039 90af 8803 07af
00000090: f06a 2ab2 d820 47b2 7ede 70b2 f625 4fb2
000000a0: df08 75b2 83bb 81b2 b3c9 44b2 2b3c 46b2
000000b0: f2cd e6b1 ce60 5830 9727 1830 0430 d130
000000c0: 9f87 4030 c437 f030 661b 1531 77b5 c830
000000d0: c27e 1c31 3350 fc30 3981 4c32 1d4b 0f32
000000e0: 0fdc ea31 9b65 1232 1639 b931 cd9e 9a31
000000f0: 454c f131 5d38 9b31 772e b931 df31 e82e
00000100: 68a3 9e2f 294f 60ae 9b2c f62f faae 6c2e
00000110: 880c c8ae 7448 fe2f a69b bb2f d1e2 cf2f
00000120: 4223 572f aab5 392f 7c74 c02f 585c 2a31
00000130: 98a7 dc30 62d8 022f 9bd3 3031 43ce afaf
00000140: 0cc5 a630 d6bb 9733 d64a 9433 ea29 a733
00000150: 4c1a a533 5593 af33 7acb c533 3c8b ac33
00000160: ce88 bc33 e45f d433 ca16 6632 ac30 2a32
00000170: 518b 38b2 3a77 7a32 6ba8 6232 bd9d 9132
00000180: fd57 5d33 ae35 dcb2 e551 a132 2976 2233
00000190: f53f 3e33 daa8 5933 40ba 2e33 cf85 5c33
000001a0: b477 7633 e205 5d33 0690 8433 681b 8f33
000001b0: 69c1 8f32 0193 b732 ad98 da32 8d1d a032
000001c0: 3e6d cd32 6181 e332 5689 9732 8157 bb32
000001d0: 92f8 bc32 3d6f 17b2 4a9f 0db2 194a 03b2
000001e0: 3d84 0db2 668f f4b1 77d3 eab1 9962 f9b1
000001f0: ff94 dbb1 36cf deb1 6169 7133 9ba6 8133
00000200: 49bf 8833 5a57 7533 b6aa 8333 8ca5 8633
00000210: 6772 8333 e147 8a33 36e3 8633 7c03 8433
00000220: 840f 8233 488c 8d33 f912 a233 ffeb a133
00000230: 3ef4 b033 83a9 9f33 dcda a733 aa54 bb33
00000240: 305a 3c33 3fc7 3733 e613 6033 6a98 6833
00000250: b35e 7733 eff6 9333 64c1 5333 d023 8133
00000260: a1a1 9533 5b40 21ab 6fca 2130 b261 532f
00000270: 5e42 b22c 154d ac2f 7ee0 5aad 4869 cb2b
00000280: b350 62ad c806 392f 5b12 4030 0bb9 4a31
00000290: d3aa a430 431a ba30 64ed 2331 0a9d 9531
000002a0: 0cd0 9030 1b72 8231 a088 b5af d518 94b0
000002b0: 3c58 43b1 a973 1db2 b713 80b2 a79d feb0
000002c0: 40d1 8eb0 d268 48b2 8777 27b1 b0d9 ccb0
000002d0: b828 9a32 77a4 9332 2b13 6632 2c9a 6c32
000002e0: 9b95 3532 fb4a 1032 ad24 3132 42a2 dd31
000002f0: a126 c231 4aed 2bb3 663b 2fb3 f7b6 30b3
00000300: 472b 2bb3 feed 29b3 c0f3 29b3 8df6 2db3
00000310: c329 30b3 56e7 2eb3 87fa dab2 28cf b0b3
00000320: 33bf 6232 652c 81b1 ce03 d5b2 5d2d 2432
00000330: 1868 dd32 9a4e fa31 6881 22b2 d56f 8431
00000340: 3b68 9d31 bbe2 8532 5b31 8832 cd82 a632
00000350: 2aec 0033 fdea ec32 15f9 0b33 fc79 3033
00000360: 60a2 8e33 61a5 c631 e8f9 7533 7f95 1934
00000370: 9fed 3834 3abf 4434 7752 4834 a1d9 5434
00000380: bc6b 7934 1bf1 4cae de25 f631 6c88 38ae
00000390: 2a78 cdac 386a a330 84c6 b1ad 4c33 85ae
000003a0: 4163 06af 569b 5e30 d401 1cb2 4124 aeb1
000003b0: 464f 0ab2 9e1e ddb1 5bc2 29b1 af33 2630
000003c0: 31f3 422f 6fb5 8a31 4575 8b31 2570 6432
000003d0: 1280 3e32 3430 2733 dab2 c732 f4cb 1033
000003e0: c26e 8433 42c6 4833 e629 8733 450a b433
000003f0: bc8d 1133 cfaf 3333 2f79 8333 3a0f 9033

e_conv5.bias f4 [16]
-3.7504278e-06 0.031106146 -0.010027149 0.057784997 -0.008138234 -0.012784661 0.010918498 -0.00021541072
0.041645437 -0.0006039945 -0.0012875277 -0.0006526111 -3.5619803e-05 -0.0009900772 0.048369944 -1.75407e-06
00000000: dcaf 7bb6 51d2 fe3c e948 24bc f6af 6c3d
00000010: 3a56 05bc c176 51bc 80e3 323c e0df 61b9
00000020: 6894 2a3d 6255 1eba 43c2 a8ba fd13 2bba
00000030: 7966 15b8 7ac5 81ba 901f 463d 636d ebb5

e_conv6.weight f4 [16, 32, 3, 3]
4.144523e-10 4.422618e-10 4.3459716e-10 4.3285828e-10 3.9623954e-10 4.2056064e-10 4.950297e-10 -4.89601e-11
2.7446637e-10 -0.0021227323 -0.0020445816 -0.00059945823 0.0044524386 0.005816461 -0.00026991876 0.0007584231
-0.003925121 -0.0013593723 2.7100102e-06 2.6640166e-05 1.2586652e-06 2.2181996e-05 1.2925985e-06 5.862316e-06
1.0104799e-05 2.1870212e-05 2.8228707e-05 0.0006781698 0.00030111894 -0.0008301661 0.0030112807 0.0002629947
0.005546108 -0.0013275589 0.0017303155 -0.0012411923 0.00025751468 0.00051290373 -5.687756e-05 0.0008477658
0.0011052157 -0.00037334277 0.0010163316 0.00014536262 0.0026368645 2.5808393e-05 2.184529e-06 1.3795868e-05
4.718129e-06 9.790999e-06 1.5812035e-05 1.5928086e-05 2.656231e-05 1.407299e-05 -3.6519904e-07 -7.0346296e-08
-1.3883137e-07 6.485021e-07 -1.9904662e-07 7.685158e-07 6.533155e-07 9.81341e-07 1.2299256e-06 -2.098636e-09
-4.3820422e-10 5.8749745e-08 2.8178626e-09 1.5654907e-08 1.2710375e-08 5.580026e-08 -2.057546e-10 6.384146e-09
-0.002795521 -0.00067888823 0.0064433464 0.0002816963 -0.00897615 0.0027019584 0.00015120709 -0.007923469
-0.0072636204 3.6914955e-08 3.1293077e-08 4.1682586e-08 1.6338213e-08 3.4712944e-08 2.33077e-08 3.8923783e-08
4.2041172e-08 -5.7196714e-09 1.6368989e-06 6.0880467e-07 3.784702e-07 3.203767e-07 7.1568917e-07 8.8159595e-07
7.711824e-07 1.8243777e-06 7.8436415e-07 -6.025444e-07 -1.0260253e-06 -1.1943133e-06 -3.5183105e-06 -6.084552e-07
-1.5083366e-06 -7.881632e-07 -5.665428e-07 -4.4489852e-06 3.1576282e-09 3.0517147e-09 -6.547315e-10 3.3084018e-09
3.2029002e-09 1.5925761e-09 -3.75652e-10 2.9321428e-09 3.1278946e-09 7.539245e-08 5.3637996e-09 8.337084e-08
7.5953466e-08 8.376943e-08 3.336178e-08 8.534451e-08 1.1079909e-09 -2.1831395e-08 0.00013511053 -0.0005238416
0.0012026067 0.00029899643 -0.003066392 -0.0014186291 0.00018888728 -0.005531806 0.0013546561 9.756131e-10
6.976553e-10 1.3774191e-09 1.251092e-09 1.66539e-09 1.4569627e-09 5.902126e-10 1.7058631e-09 1.0197104e-09
-1.1129915e-06 9.449657e-06 -1.991901e-06 1.1894653e-05 6.162437e-06 1.2054434e-05 1.3733238e-05 1.2843388e-05
1.1234403e-05 -0.00023947637 3.3560187e-05 0.00010111422 0.0011381822 0.00056070165 -0.00040595132 4.3772696e-05
8.276939e-05 0.0001421492 1.376911e-06 5.9474346e-06 4.8362244e-06 4.790327e-06 4.72461e-06 5.155935e-06
6.3537254e-06 6.477339e-06 2.37422e-06 0.00019694166 0.0001206509 0.00013746793 0.00017921471 -0.0005670644
2.68373e-05 0.0001471987 0.00010190068 0.00010884874 -6.071952e-06 -6.126229e-06 -6.3173316e-06 -5.723159e-06
-5.77144e-06 -5.9929584e-06 -5.997372e-06 -6.145779e-06 -6.4450196e-06 -2.4535686e-05 -7.404301e-05 -7.447592e-05
-5.636148e-06 -6.762444e-05 -6.973828e-05 -2.238215e-05 -2.8625564e-05 -5.315119e-05 9.8184224e-05 9.696441e-05
0.000102243364 0.00012355091 0.000101726495 0.00010712555 0.00010211063 9.381641e-05 0.00010090147 0.00046045627
0.00045255912 0.00027177582 0.00046638696 0.00037018527 0.00018137586 -0.0003353556 0.00063483673 0.00034427582
-0.00087859284 9.329234e-06 -4.5517572e-05 -0.00015248 -0.00024911514 -0.00038310626 0.00021668444 7.111804e-05
-0.001895023 0.00043805252 0.0002971073 -0.0015984717 -7.756364e-06 0.00014120694 -5.610723e-05 7.928661e-05
0.0010287906 -0.0010048588 1.9697266e-06 3.3188046e-06 3.1250277e-06 6.7552755e-06 6.6918e-06 1.2678524e-06
2.2409295e-06 2.5172349e-06 1.1133424e-07 -0.00082624366 0.00015586313 0.0002472315 0.00019879412 0.00021128183
6.1481594e-05 -0.00087937154 -0.00037647938 0.00018012652 -0.00042503065 0.00012768524 0.0003876303 0.00020252142
00000000: fad8 e32f d122 f32f 1dec ee2f 63f7 ed2f
00000010: c2d5 d92f a634 e72f 9e12 0830 2c54 57ae
00000020: b5e3 962f 8a1d 0bbb 63fe 05bb f624 1dba
00000030: c3e5 913b 0398 be3b e283 8db9 ead0 463a
00000040: 4d9e 80bb f72c b2ba 9fdd 3536 5279 df37
00000050: 68ef a835 7913 ba37 597d ad35 e9b4 c436
00000060: c887 2937 ec75 b737 b0cc ec37 34c7 313a
00000070: 80df 9d39 819f 59ba e858 453b 8de2 8939
00000080: 20bc b53b 7c01 aeba c1cb e23a 81af a2ba
00000090: 0903 8739 6374 063a d18f 6eb8 9a3c 5e3a
000000a0: e3dc 903a 38bd c3b9 6e36 853a 7b6c 1839
000000b0: 3fcf 2c3b 1a7f d837 ec99 1236 cd74 6737
000000c0: 6b50 9e36 0544 2437 16a4 8437 4e9d 8537
000000d0: 20d2 de37 081b 6c37 9310 c4b4 4911 97b3
000000e0: ad11 15b4 ba14 2e35 85b9 55b4 014c 4e35
000000f0: 805f 2f35 9fb6 8335 ec13 a535 9837 10b1
00000100: c3e7 f0af 0754 7c33 5da4 4131 8179 8632
00000110: d25c 5a32 09a9 6f33 c53a 62af 8b5b db31
00000120: 0f35 37bb 6bf7 31ba b522 d33b a3b0 9339
00000130: b410 13bc 5713 313b 588d 1e39 70d1 01bc
00000140: aa03 eebb 6c8c 1e33 1a67 0633 7d06 3333
00000150: 1c58 8c32 4917 1533 2d36 c832 272d 2733
00000160: c290 3433 c386 c4b1 6bb3 db35 bd6c 2335
00000170: 8c30 cb34 3d00 ac34 c91d 4035 d0a6 6c35
00000180: 4003 4f35 24dd f435 188d 5235 89be 21b5
00000190: f6b5 89b5 4b4c a0b5 1d1c 6cb6 b954 23b5
000001a0: 0d72 cab5 2a92 53b5 8614 18b5 7e48 95b6
000001b0: 95fd 5831 55b6 5131 a2f8 33b0 055a 6331
000001c0: 041a 5c31 cae1 da30 5284 ceaf cd7e 4931
000001d0: 81f2 5631 70e7 a133 7b4c b831 9b09 b333
000001e0: dc1b a333 bbe4 b333 aa49 0f33 a446 b733
000001f0: f747 9830 bf87 bbb2 75ac 0d39 6a52 09ba
00000200: c9a0 9d3a 9fc2 9c39 85f5 48bb 4bf1 b9ba
00000210: 0b10 4639 2744 b5bb b78e b13a 5616 8630
00000220: 21c5 3f30 a04f bd30 e3f2 ab30 b4e3 e430
00000230: 513e c830 853c 2230 b973 ea30 df25 8c30
00000240: 1962 95b5 f889 1e37 99ac 05b6 258f 4737
00000250: eec6 ce36 663d 4a37 cf67 6637 ee79 5737
00000260: 657b 3c37 f31b 7bb9 fac2 0c38 490d d438
00000270: 0f2f 953a 0dfc 123a ddd5 d4b9 9398 3738
00000280: 7a94 ad38 e30d 1539 4dce b835 1390 c736
00000290: da46 a236 98bc a036 1788 9e36 2501 ad36
000002a0: 1632 d536 eb57 d936 ca54 1f36 2082 4e39
000002b0: f505 fd38 4425 1039 95eb 3b39 0ca7 14ba
000002c0: aa20 e137 5a59 1a39 83b3 d538 b945 e438
000002d0: acbd cbb6 e88f cdb6 77f9 d3b6 9009 c0b6
000002e0: 4ba8 c1b6 1f17 c9b6 093d c9b6 d737 ceb6
000002f0: 4c42 d8b6 fcd1 cdb7 8a47 9bb8 f52f 9cb8
00000300: 251e bdb6 98d1 8db8 7440 92b8 4dc1 bbb7
00000310: ee20 f0b7 a8ee 5eb8 41e8 cd38 5f59 cb38
00000320: 7d6b d638 728d 0139 ff55 d538 97a8 e038
00000330: 3a24 d638 4dbf c438 109b d338 6569 f139
00000340: 7545 ed39 227d 8e39 6685 f439 6d15 c239
00000350: b62f 3e39 abd2 afb9 2c6b 263a eb7f b439
00000360: 5e51 66ba c184 1c37 1fea 3eb8 0ae3 1fb9
00000370: ab9b 82b9 a7db c8b9 c935 6339 3525 9538
00000380: 6c62 f8ba 6aaa e539 11c5 9b39 cf83 d1ba
00000390: 5421 02b7 f310 1439 ae54 6bb8 ad46 a638
000003a0: 7cd8 863a 77b5 83ba a52f 0436 a1b8 5e36
000003b0: 91b7 5136 60ab e236 208a e036 142b aa35
000003c0: e062 1636 c4ed 2836 a516 ef33 4698 58ba
000003d0: 316f 2339 da9e 8139 6473 5039 898b 5d39
000003e0: aeef 8038 a085 66ba 3562 c5b9 58e0 3c39
000003f0: a6d6 deb9 3fe3 0539 dc3a cb39 ee5b 5439

e_conv6.bias f4 [16]
-0.002308978 0.009245455 0.042077504 -0.014881343 -0.016325643 -0.013102199 -0.026925283 0.009162191
0.00033870377 -0.005309232 0.037476767 0.0013276965 -0.005825483 0.016766729 -0.015648289 -0.0010447461
00000000: 3952 17bb 407a 173c 7659 2c3d e0d0 73bc
00000010: 5bbd 85bc 9baa 56bc 6992 dcbc 041d 163c
00000020: 0d94 b139 11f9 adbb 3d81 193d 1a06 ae3a
00000030: b1e3 bebb 615a 893c d730 80bc ddef 88ba

e_conv7.weight f4 [16, 32, 3, 3]
8.442202e-07 8.634457e-07 1.4174611e-07 4.3397293e-07 5.542294e-07 4.9272053e-08 8.177838e-07 8.166279e-07
4.36485e-07 -2.1977694e-06 -2.252568e-06 -2.2893107e-06 -2.2974098e-06 -2.3473908e-06 -2.3602045e-06 -2.4407539e-06
-2.4727494e-06 -2.4678914e-06 -2.2161641e-06 5.4546064e-07 -2.2933064e-06 7.2062915e-07 1.2199772e-06 2.2217455e-06
9.0192486e-07 -6.351219e-07 1.0248966e-06 -2.4622925e-06 -2.5436732e-06 -2.6357477e-06 -2.4181672e-06 -2.5284548e-06
-2.6283137e-06 -2.4382036e-06 -2.55102e-06 -2.6454584e-06 4.817017e-07 1.8858463e-08 3.6827726e-07 -9.1286296e-07
3.1024354e-07 -6.1406496e-07 3.7468484e-07 -1.0419855e-06 -6.2473924e-07 -2.9016612e-05 -2.7244707e-05 -4.6832523e-05
-2.686413e-05 -2.7511787e-05 -2.655765e-05 -4.749814e-05 -2.6279427e-05 -2.9573908e-05 -2.235034e-06 -5.481008e-06
-5.3336908e-06 -3.945083e-06 -2.3334694e-06 1.3830045e-06 1.8326016e-06 1.6655918e-06 -6.4228752e-06 5.9293197e-06
4.129177e-06 8.246234e-06 1.9320414e-06 8.114994e-06 3.2788157e-06 8.044343e-06 8.591336e-06 6.7094757e-06
1.4111932e-06 6.230676e-07 2.6950527e-06 2.3316536e-06 5.7010436e-07 2.6598639e-06 1.7857922e-06 2.5209356e-06
2.4781664e-06 -2.256841e-07 -2.2409915e-07 1.1653328e-06 5.4161685e-08 -1.3052514e-07 1.2047014e-06 1.2897891e-07
5.181443e-08 1.9454698e-07 -0.00075039605 -0.00094021996 -0.0007484623 -0.0011617687 -0.0014348655 -0.0008632859
-0.0013943106 -0.00053676486 -0.00041868552 7.756862e-07 1.4965717e-07 2.2614935e-07 5.6186946e-07 3.443581e-07
2.599498e-07 7.4551343e-07 5.08885e-07 1.9854161e-07 2.7437156e-06 2.96083e-06 2.2065326e-06 2.7675576e-06
2.9585578e-06 2.6727664e-06 2.5740262e-06 1.9843578e-06 2.6016703e-06 1.43125635e-05 1.0962602e-05 1.9896968e-05
5.8094943e-06 7.1174927e-06 1.8274659e-05 1.1044055e-05 6.389853e-06 1.9521662e-05 2.565475e-05 -1.230882e-05
2.0505295e-05 -2.0578052e-05 -5.046966e-06 -1.4589816e-05 1.5773338e-05 4.906945e-07 8.6997295e-07 1.5317925e-06
-2.6211632e-07 7.6172165e-07 1.499125e-06 1.5523135e-06 1.5053756e-06 1.5314142e-06 -2.487219e-07 1.5088087e-06
-0.00022259752 -7.668531e-05 -0.00014044292 -9.1094356e-05 -3.1516724e-05 -0.00024150043 -0.00021417387 -0.00020993216
-0.00022906305 1.2683489e-07 -8.927117e-09 1.1239288e-07 1.53672e-07 -3.0897874e-07 4.0147415e-07 1.2095171e-07
3.767995e-07 4.608857e-07 0.00019515383 0.00016686518 0.00013001163 0.00019148574 0.000121766476 9.655752e-05
0.00013998635 6.6553344e-05 6.644007e-05 -0.00078183494 -0.001440824 -0.0007131449 -0.0019951945 -0.0007817347
-0.00085499836 -0.00033810365 -0.00083120784 -0.0009056732 -1.2933523e-05 -1.2191538e-05 -2.9939672e-05 -1.3336584e-05
-9.988756e-06 -7.4878726e-06 -2.8020988e-05 -2.4982943e-05 -6.349099e-06 1.4766101e-07 -5.2351097e-06 -3.875548e-07
-2.7137896e-06 -4.0399254e-07 -7.1140385e-06 2.7290032e-06 -9.300428e-06 3.7775708e-06 8.2201324e-05 3.0021747e-05
5.5025066e-06 0.00015432251 9.811207e-05 3.4049903e-05 0.00021295187 0.00013114505 5.896869e-05 -0.00041019355
-0.0001251533 -0.00086507347 -0.0004482322 -0.00038873253 -0.0003958398 0.0004318511 -9.663847e-05 -0.00056105823
1.3563806e-07 -9.239857e-06 2.595313e-06 7.474845e-08 1.46495e-07 2.2037722e-07 2.1516887e-06 1.3694125e-07
2.4429467e-06 -1.8884912e-06 1.8468963e-05 4.2705356e-05 6.5197337e-06 2.888759e-05 4.865573e-05 4.7354137e-05
5.773833e-05 7.497318e-05 6.0066384e-05 5.964745e-05 7.897867e-05 6.480108e-05 6.6665605e-05 7.657181e-05
5.1508974e-05 5.427345e-05 7.191637e-05 0.00013733674 0.00014179236 0.0001927339 0.00014080884 0.00014503687
0.00020925827 0.00018677226 0.000180525 0.00020925268 0.0003524177 0.00036525846 0.00034539905 0.0003847441
00000000: 5f9e 6235 89c7 6735 e032 1834 c9fc e834
00000010: 5bc6 1435 329f 5333 ad85 5b35 3e36 5b35
00000020: 0b56 ea34 647d 13b6 d32a 17b6 0fa2 19b6
00000030: 332d 1ab6 de87 1db6 0164 1eb6 d5cb 23b6
00000040: 83f1 25b6 0d9e 25b6 69b9 14b6 c56b 1235
00000050: b4e6 19b6 4271 4135 19be a335 4c19 1536
00000060: ce1b 7235 3f7d 2ab5 2e8f 8935 dd3d 25b6
00000070: f9b3 2ab6 cde1 30b6 cc47 22b6 86ae 29b6
00000080: 1662 30b6 05a0 23b6 3132 2bb6 a188 31b6
00000090: 4a4e 0135 33fe a132 a4b7 c534 770b 75b5
000000a0: 8c8f a634 39d6 24b5 4b28 c934 59da 8bb5
000000b0: c1b3 27b5 b368 f3b7 908b e4b7 0a6e 44b8
000000c0: 485a e1b7 1dc9 e6b7 1ec8 deb7 bd38 47b8
000000d0: a472 dcb7 7c15 f8b7 97fd 15b6 80e9 b7b6
000000e0: 0ef8 b2b6 0160 84b6 b398 1cb6 ac9f b935
000000f0: b6f7 f535 4c8d df35 1484 d7b6 78f4 c636
00000100: 5c8d 8a36 4e59 0a37 38a8 0136 a225 0837
00000110: a009 5c36 31f6 0637 8223 1037 f521 e136
00000120: 3b68 bd35 e140 2735 a7dc 3436 8179 1c36
00000130: 4609 1935 1d80 3236 5aaf ef35 582d 2936
00000140: 934e 2636 9353 72b4 e89f 70b4 8868 9c35
00000150: 679f 6833 7a26 0cb4 3ab1 a135 747d 0a34
00000160: 918a 5e33 abe4 5034 3ab6 44ba 1879 76ba
00000170: 7434 44ba 7d46 98ba 1912 bcba 234e 62ba
00000180: 4dc1 b6ba aeb5 0cba 0583 dbb9 c038 5035
00000190: 73b1 2034 76d3 7234 60d3 1635 38e0 b834
000001a0: 3a8f 8b34 4b1f 4835 509a 0835 b42e 5534
000001b0: ad20 3836 acb2 4636 f113 1436 47ba 3936
000001c0: a38b 4636 c75d 3336 6fbd 2c36 022b 0536
000001d0: 5b98 2e36 fe1f 7037 04ec 3737 6ae8 a637
000001e0: 2def c236 ccd2 ee36 884c 9937 db49 3937
000001f0: 6b68 d636 73c2 a337 2835 d737 fb81 4eb7
00000200: c902 ac37 089f acb7 1c59 a9b6 c8c6 74b7
00000210: fc50 8437 45b8 0335 1688 6935 fd97 cd35
00000220: feb8 8cb4 1d79 4c35 8b35 c935 1659 d035
00000230: 500c ca35 fe8a cd35 1488 85b4 4682 ca35
00000240: 1169 69b9 1dd2 a0b8 dc43 13b9 e909 bfb8
00000250: d330 04b8 473b 7db9 dc93 60b9 3c21 5cb9
00000260: a530 70b9 1c30 0834 e05d 19b2 a45c f133
00000270: 0a01 2534 b7e1 a5b4 308a d734 f4de 0134
00000280: ee4a ca34 a66f f734 35a2 4c39 88f8 2e39
00000290: bb53 0839 90c9 4839 e15c ff38 ec7e ca38
000002a0: 4dc9 1239 8e92 8b38 be55 8b38 0ef4 4cba
000002b0: 08da bcba 58f2 3aba cfc1 02bb 54ed 4cba
000002c0: f821 60ba 8143 b1b9 6ae5 59ba b36a 6dba
000002d0: 0ffd 58b7 428a 4cb7 f526 fbb7 31c0 5fb7
000002e0: 6195 27b7 5640 fbb6 9d0e ebb7 7692 d1b7
000002f0: 580a d5b6 c08c 1e34 40a9 afb6 2011 d0b4
00000300: 8d1e 36b6 50e4 d8b4 20b5 eeb6 eb23 3736
00000310: 0909 1cb7 2c82 7d36 8063 ac38 36d7 fb37
00000320: 2ca2 b836 a2d1 2139 84c1 cd38 ced0 0e38
00000330: d54b 5f39 fb83 0939 2655 7738 3f0f d7b9
00000340: 953b 03b9 19c6 62ba b500 ebb9 ccce cbb9
00000350: b888 cfb9 136a e239 62aa cab8 fb13 13ba
00000360: e8a3 1134 e204 1bb7 232b 2e36 6585 a033
00000370: 3d4c 1d34 d4a0 6c34 bb65 1036 200a 1334
00000380: 81f1 2336 1078 fdb5 cced 9a37 871e 3338
00000390: 16c4 da36 a153 f237 b113 4c38 1e9e 4638
000003a0: 0f2c 7238 eb3a 9d38 caef 7b38 f62d 7a38
000003b0: 5aa1 a538 d1e5 8738 d3ce 8b38 2d95 a038
000003c0: 570b 5838 aca3 6338 cfd1 9638 0d02 1039
000003d0: 19ae 1439 9d18 4a39 16a6 1339 0a15 1839
000003e0: 576c 5b39 4cd8 4339 504b 3d39 d76a 5b39
000003f0: b4c4 b839 2980 bf39 ad16 b539 7bb7 c939

e_conv7.bias f4 [16]
-0.0031435366 -0.021793699 0.06386783 -0.005079259 -0.013134508 -0.061187293 -0.030262444 0.047755525
0.0363718 0.0026885872 0.0073414175 0.07403323 0.050919093 0.004870456 0.050293814 -0.0060039465
00000000: cb03 4ebb b388 b2bc 23cd 823d ea6f a6bb
00000010: 1f32 57bc 879f 7abd f2e8 f7bc 4c9b 433d
00000020: 99fa 143d 0233 303b 4690 f03b bc9e 973d
00000030: 8a90 503d 5998 9f3b e300 4e3d c1bc c4bb
