DED_Net/checkpoint/NSS-Net_param.pth (torch, 159798 bytes, 67 tensors)

e_conv1.weight f4 [16, 1, 3, 3]
00000000: d71c 31bd 73de 1bbd 3f83 8abe 9be6 ed3d
00000010: 9e26 ba3e 90ca 5f3e 08e1 113c 63cd e4be
00000020: df71 0cbe 2918 643e f713 833d 804d 883e
00000030: cbc6 86be d3a7 113e 7494 4f3e fba9 adbe
00000040: 21be 56be 85fc bdbd 022e afbb edbb d7be
00000050: f92d 2e3b b625 26be cf7c f23c 1b49 f53e
00000060: e16b 3dbc ece1 45be 6ce7 853e c5f6 8a3d
00000070: e4b2 09bf 911f b23e e55e 093e 6c7b f63c
00000080: 6a1e 4abe 914c b4bb eb0c 0d3e 3ccf 033d
00000090: 6b1a fbbd 216a 95bc 65dd 43be e027 783e
000000a0: 3948 6cbe e1c2 aabe 4d43 09be ab5a a83e
000000b0: 179e 5aba 7ea8 993e ba5d ccbe ed9f aebe
000000c0: e874 8f3e 2816 353e 1cf2 c23d 289b 1b3d
000000d0: da61 943d 6b75 74be f922 8e3c 41e7 053f
000000e0: 9f2c 673e 54d8 253e 20b2 eebe b89e b9bd
000000f0: 91d3 c9bd 7f8e d8bd a5d9 33be c823 4cbe
00000100: e932 7d3e 45fe c0bc a0dd d0be f99b a4bd
00000110: 600a 8e3e 8b29 abbd 10f0 4c3e 1c80 6a3d
00000120: 8b89 613d 39ff e1bd 2dc9 52bd 7c8d d63d
00000130: e002 0ebe 44b9 a2bd 396c e63e 8d7a a33d
00000140: c0f4 b2bc 8fd1 be3c 904b ff3e ae62 9e3d
00000150: 07a6 eebd 57c4 74bd cfd6 75bd fb54 dcbb
00000160: bc0b 89bd ee84 bebd 7636 a6be 750c 023e
00000170: 5b42 bfbe 8c62 4d3e b45f 93be 8340 073d
00000180: 7a9d 2e3e 894a 8e3e 7f57 2d3e 61c7 35bd
00000190: 8176 7e3b f44a 263e 24ec 0ebc 04b5 d03e
000001a0: 37e9 80be 02ff 49bd 4e8c 2cbd 6aff 8d3d
000001b0: 08c8 c0bd a1e6 993e d9da e13c de65 d33d
000001c0: 588a a73e d62e abbe 6dd0 f63b 20ca ae3d
000001d0: b7c1 dbbe 38e6 0080 5e01 0000 3897 0080
000001e0: e47b 0080 3b79 0080 0b53 0000 93cf 0080
000001f0: 8021 0000 4751 0000 37b9 16bd b57d cc3d
00000200: d3aa 3e3d 6b82 05b9 9f48 563d d236 88be
00000210: 6b05 853c 819a cabe 6208 023f 7366 473d
00000220: 9136 64bb 975b 36be b634 243c 9b53 e0be
00000230: 4561 8a3e 03a8 543d d4db 423d 3750 9abd
-0.043240394 -0.03805394 -0.27053258 0.1161625 0.36357588 0.21854615 0.008903749 -0.44687948
-0.13715313 0.22274841 0.06400292 0.26621628 -0.26323542 0.14224176 0.20271474 -0.33918747
-0.20970966 -0.0927668 -0.0053460607 -0.42135563 0.0026577695 -0.16225323 0.029600529 0.47907338
-0.011561365 -0.19324464 0.26153123 0.06785349 -0.5378859 0.34789708 0.13415106 0.030088149
-0.19738165 -0.0055022915 0.13774459 0.032180056 -0.12260898 -0.018239083 -0.19127424 0.24233961
-0.23074426 -0.33351806 -0.1340458 0.32881674 -0.0008339597 0.30011362 -0.39915258 -0.3410639
0.2801888 0.17684233 0.09518835 0.037989765 0.07245226 -0.23872916 0.01735066 0.5230599
0.22575615 0.16195804 -0.46620274 -0.09063476 -0.09854806 -0.10574054 -0.17563494 -0.19935524
0.24726452 -0.023558745 -0.40794086 -0.08037562 0.2774229 -0.08357533 0.20013452 0.05725108
0.05506281 -0.11035008 -0.051461387 0.10476205 -0.13868284 -0.07945493 0.45004442 0.07982359
-0.021845222 0.023293285 0.49862337 0.077336654 -0.11652761 -0.059757557 -0.06001931 -0.0067239976
-0.06691691 -0.09302698 -0.32463425 0.12700064 -0.37355313 0.20057124 -0.28783953 0.033020508
0.1705226 0.2779124 0.16927908 -0.044379596 0.0038827958 0.1623953 -0.0087232925 0.40763104
-0.2517793 -0.04931546 -0.042125992 0.06933482 -0.09413153 0.30058768 0.027570175 0.10322164
0.32722735 -0.3343417 0.0075321705 0.08534646 -0.4292123 -8.2587e-41 4.9e-43 -5.4247e-41
-4.4444e-41 -4.3489e-41 2.979e-41 -7.4464e-41 1.2018e-41 2.9157e-41 -0.03679773 0.09984914
0.04654963 -0.00012732453 0.05231535 -0.26604325 0.016237935 -0.39571002 0.5079404 0.048681688
-0.0034822563 -0.17808376 0.010022333 -0.43813786 0.27027336 0.05191804 0.047572926 -0.07534831

e_conv1.bias f4 [16]
00000000: eeb8 9cb7 40e2 cab7 6df9 4bb8 9589 fdb7
00000010: 7b53 8237 9659 c737 42fc 0a37 3222 69b7
00000020: e648 b238 be1c 2fb7 1002 4338 6659 9937
00000030: 4ea1 f336 6aca 0080 f1dc 8237 ba8d 9138
-1.8682764e-05 -2.4185632e-05 -4.8631267e-05 -3.0224017e-05 1.5536081e-05 2.3764365e-05 8.284174e-06 -1.3895844e-05
8.50128e-05 -1.0437505e-05 4.6493544e-05 1.828065e-05 7.2607427e-06 -7.2612e-41 1.5600092e-05 6.9405374e-05

e_conv2.weight f4 [16, 16, 3, 3]
00000000: 696c 2f3d 8566 8cbb 468e 89bd 3d5f 06bd
00000010: ed21 a43b 577a 81ba 40b4 04bc 6908 743d
00000020: 923b 88bd b3fc 8a3c 45d5 133c 6b08 3dbd
00000030: e704 403d c9fa 873d c677 1cbe 194e 11bc
00000040: ff9e 92bd cac0 a43b ff2e 58bb 5b9f 4abe
00000050: f9b2 893c 239d 3c3e ab98 28be e643 96bd
00000060: 976e b2bc c3fd 09be f804 433d fcc8 a73c
00000070: ef40 a73d e4c4 95bd 3e10 00bd dafe cabb
00000080: 03e0 3cbd ed81 263c 7fc6 acbe 681c 163e
00000090: 555c fdbc 7e92 703b 213a 8ebc a083 fdbd
000000a0: 48b7 fa3d 1b4a 96bd 2ba0 27bd 5dd7 a13d
000000b0: 79c8 35bd 10b0 69bd 6453 493e 66e2 28be
000000c0: 1a52 3f3d c95d eb3c dc62 42bc 71b8 89bc
000000d0: b7a6 8ebc 66fd 3f3e db8b 37bc 79c8 a1bb
000000e0: a309 d1bb 7cf4 2ebd b076 fdbd d0e8 8c3e
000000f0: a23a b73d 108d 8f3d 8bc2 88be 8479 903a
00000100: b12f 18bd 60d8 15bb fa2b 483c 0574 093c
00000110: ef70 2fbd d359 80bd b7ba 54bc cbbf 41bd
00000120: 4889 fe3c 318f 383d adac 033e 6f75 baba
00000130: 413f a8bc db5d 003e 909e 95bc 5e28 a7bd
00000140: b44c 213d cbef 6abd a9d2 bbbb b265 14bd
00000150: 5e82 0dbd 03d5 063c da3e 74bd da36 043d
00000160: 6c23 61bc ecac 46bc 6a39 813c 95b2 9c3c
00000170: af04 0c3c 6d52 e43c adb3 f9bd ed3d 123e
00000180: 7658 36bd c6d0 0b3e f759 45be 775d 62bc
00000190: abbd 78bc 7d0c c4ba a220 19bd b150 963d
000001a0: ee04 65bd fa36 133d df4b 9aba 7bf2 4d3d
000001b0: e5c9 bfbd 5928 423e b47e ecbc 515f 94bd
000001c0: 49e0 2f3e 3d8e 9bbd 76eb c1bc 7bfe 003e
000001d0: 7544 753a 3bec 1e10 0e98 930f 3252 6b13
000001e0: 3918 a90f 8260 8588 8849 6b13 c579 dc10
000001f0: a372 b110 702a 6a13 302c b5bc f696 bdbe
00000200: 99c9 8e3d 56fb 75bd cca5 ca3c 096a 5fbd
00000210: 06cc 9c3a 5864 d33d ab71 793c 6fb2 333c
00000220: 4d4f 453b 9a96 1cbd 128c c13d b354 b63c
00000230: 6184 71bd 735b 0d3d 7a9c bc3d 0e7b 1abd
00000240: a8d3 6bbd 485f 873c 3ea2 a13c 040b 61bd
00000250: cb1c 47bc 8d48 b0bc 73e7 2cbd 4682 03bc
00000260: 941f 34bd e1a2 6fbd 4d49 19bd c557 5ebd
00000270: b7ac efbb a935 5a3d 7f28 60bd 688d 063d
00000280: 9633 28bc 9b30 bebc 4dc0 d63c b759 85bd
00000290: 0e68 593d dc11 433d 718d 24bd a595 5f3d
000002a0: 222f 0c3e a75b d5bd fd9a a83c ce28 793d
000002b0: 3462 3e3c d0aa 25bc 1409 383d f034 9ebd
000002c0: 6fe8 05bd 0f94 4ebc 9538 60bd 963f a2bd
000002d0: 005f 9abc b885 f5bc 7732 a13d df94 483d
000002e0: 598e 543b 2365 113d a17b 483d 0b32 3c3c
000002f0: 0d38 833d 0d04 bcbc aefe c13a 340b c3bb
00000300: 63da 3dbd 8aab abbc ddd7 2cbb b063 28bd
00000310: 9ca4 88bd 4e95 66bd 912b 383d 320c dabc
00000320: 5fa8 dcbc 1249 68bd 43e4 82bd e4f3 9bbc
00000330: f099 593c d0e5 10bd e609 92bd 3aa9 ad3a
00000340: ef3c 84bd 46d7 cc3c a30e e33c a97d efbc
00000350: a1da dabc 0db8 703d 8f28 7c3d a329 5abd
00000360: 1306 d43c 2bd2 32bd 5112 29bc 82ed 2b3c
00000370: 5b72 0bbc 7d62 43bd f2fb bc3c bfe4 bc3c
00000380: edba 663c b877 3bbd adb1 23bd 9700 f4ba
00000390: dea1 a3bd 5cd7 3fbd 8d27 65bd 4c25 c6bc
000003a0: 50f2 d2bc be4b f4bc 6209 50bc d720 393d
000003b0: b6aa 3a3d f8a6 573b 61d1 10bd df72 1f3d
000003c0: 6b93 1dbd dfe7 b53c 25d7 993a d172 9fbd
000003d0: 3f81 bdbc bdd2 4c3d b882 9fbd d32d 403d
000003e0: 9fa1 c23d 0eb9 85bd 0ebf 6e3c c6c4 b03d
000003f0: 2b67 b73d f4e5 bd3d 546f a53d fa03 923c
0.042827997 -0.004284682 -0.0671659 -0.03280567 0.005008927 -0.0009878379 -0.008099616 0.059578333
-0.06651987 0.0169662 0.009023015 -0.046150606 0.046879675 0.0663963 -0.15280065 -0.008868718
-0.07159232 0.005027865 -0.0032986996 -0.19787352 0.016808974 0.18419318 -0.16464488 -0.07337169
-0.021781249 -0.13475709 0.04761216 0.020481579 0.08166682 -0.073129445 -0.03126549 -0.0061949315
-0.04611207 0.010162813 -0.3374519 0.14659274 -0.030927816 0.003670841 -0.017361702 -0.12378621
0.122419894 -0.07338353 -0.040924232 0.079024054 -0.04438064 -0.057052672 0.19660717 -0.16492614
0.046709158 0.028731244 -0.01186439 -0.016811581 -0.01741348 0.18749008 -0.011202778 -0.0049372283
-0.0063793226 -0.042713627 -0.123761535 0.27521372 0.0894673 0.070093274 -0.26710925 0.0011022543
-0.037154857 -0.0022864565 0.012217516 0.008389478 -0.04283231 -0.062671326 -0.012983969 -0.04730205
0.03107132 0.045058433 0.1285884 -0.0014225672 -0.020537974 0.12535803 -0.018264085 -0.08161996
0.03937979 -0.05735759 -0.0057318998 -0.036229797 -0.034548156 0.008229497 -0.059630252 0.032278873
-0.013741355 -0.012126189 0.015774447 0.019128123 0.0085460385 0.027871335 -0.121924736 0.14281435
-0.044517957 0.1365386 -0.192726 -0.013816229 -0.015181939 -0.0014957335 -0.037384637 0.073396094
-0.055912904 0.0359411 -0.0011771879 0.050280076 -0.0936468 0.18960704 -0.02886901 -0.07244743
0.17175402 -0.07595489 -0.023671847 0.12597077 0.0009356209 3.134199e-29 1.4553888e-29 2.9701695e-27
1.6674017e-29 -8.027335e-34 2.9697424e-27 8.6962315e-29 6.9990816e-29 2.9555876e-27 -0.022115797 -0.37029237
0.069720455 -0.060054146 0.024737261 -0.054544482 0.0011962659 0.103218734 0.015224854 0.010967835
0.0030107081 -0.038229562 0.094505444 0.022257185 -0.058964137 0.03451104 0.09209533 -0.03771501
-0.057574898 0.016524926 0.019730683 -0.054942146 -0.012152861 -0.02151897 -0.042212915 -0.008026665
-0.043975428 -0.058504943 -0.03742342 -0.054282922 -0.0073142904 0.05327383 -0.05472612 0.0328497
-0.010266205 -0.023216536 0.026214743 -0.065112524 0.05307775 0.047624454 -0.04017395 0.05458607
0.13689855 -0.10417872 0.020581717 0.06082993 0.011620093 -0.010111526 0.044930533 -0.07724941
-0.03269237 -0.012608542 -0.05474146 -0.07922284 -0.018844128 -0.029970989 0.078709535 0.0489701
0.0032433479 0.035496842 0.048946027 0.011486541 0.06407175 -0.02295115 0.0014800632 -0.0059522633
-0.046350848 -0.02095582 -0.0026373782 -0.041110694 -0.06672022 -0.05629473 0.044963423 -0.026617143
-0.026935754 -0.05671031 -0.06391194 -0.019037195 0.0132813305 -0.035375416 -0.07130794 0.0013249286
-0.06456935 0.025004994 0.02771694 -0.029234724 -0.026715579 0.058769275 0.061562117 -0.053262364
0.025881803 -0.043657463 -0.010319308 0.010493638 -0.008511151 -0.047701348 0.023069356 0.023058293
0.0140826525 -0.04576847 -0.039964367 -0.0018615898 -0.07989858 -0.046836242 -0.05594592 -0.024187706
-0.02575031 -0.029821273 -0.01269755 0.045197334 0.04557296 0.0032905918 -0.03535593 0.03892791
-0.038470667 0.022205291 0.0011737092 -0.07785571 -0.023132918 0.050005663 -0.077886045 0.0469187
0.09503483 -0.06529437 0.014571918 0.086312816 0.089552246 0.09272376 0.08077875 0.017824162

e_conv2.bias f4 [16]
00000000: 95e0 f137 3aa9 dfb5 f026 ceb6 91b5 3bb7
00000010: e18f 45b6 8141 16b7 5823 e2b7 1a89 1cb7
00000020: 0684 9736 987a 9437 d951 5ab4 4c6a 20b7
00000030: b663 0138 c40b 7eb7 b782 a935 ea79 a9b6
2.8834018e-05 -1.6664046e-06 -6.1438113e-06 -1.1188343e-05 -2.9439036e-06 -8.955948e-06 -2.6957758e-05 -9.330246e-06
4.5155202e-06 1.7700062e-05 -2.0332608e-07 -9.561492e-06 3.084886e-05 -1.5142319e-05 1.2629524e-06 -5.050785e-06

e_conv3.weight f4 [16, 16, 3, 3]
00000000: e489 643d 2254 bd3c 0cdf 59bc 90c0 893c
00000010: 1a41 9bb9 3bae d8bc b1a3 403d 4bd6 b1bc
00000020: ec61 98bd 82a0 d23c d6ee 0d3d 0c54 6c3c
00000030: f626 c83c b8b2 01bc cb94 83bc c1ec 8fbc
00000040: 3a68 1d3d ff1d 7c3d c5a0 e8ba a73b 8a3a
00000050: e909 06bb 6a6d 44bc fcd8 fdbc 7700 ad39
00000060: d199 893c 1722 883b 1833 9dbc 776e a93c
00000070: 5dcd 01bc e38a 3fbc 1e52 1dbb 8300 efbb
00000080: 91ba a53b effa e53a f905 bdbc 1c38 b73c
00000090: 57a6 efbc 0251 2bbd 20fe a7bc bc21 a33c
000000a0: abfc bbbc 6885 eb3b 5bca 2b3d 45a8 e43c
000000b0: 9dc3 983b 3c2e 613c adaa 683c 1b82 2c3b
000000c0: 92c4 97bd 0880 853c 1c1e 373c 8107 babd
000000d0: 71f8 bc3c 3dbc c13c 5b2c 24bd 963c 33bd
000000e0: 47c8 a53d b999 6f3c 71a8 04bc d475 983d
000000f0: ac93 54bc c40b 973c cdc9 8b3d 6992 5c3d
00000100: 49c2 013b ea0f cb3c 5c4e 0fbc 5a2d b5bc
00000110: aefc 3f3b f405 8d3b 2a28 f03c f67c abbc
00000120: 9653 79bc 44af b5bb 4c37 d23a 57d7 7d3c
00000130: c7be be3c c90b ce3c 3517 95bb 7179 11bc
00000140: 98ca 2ebc 8f3c 52bd ac7c b6bc 1c8c 40bd
00000150: f3fc eb3c c958 b13c 38ac 273d 2b2a 523d
00000160: 0abb db3c 8de4 df3c 494a ae3d 319e c13c
00000170: d024 5e3c dd66 623d e1e9 09bd 44c4 23bc
00000180: 76a6 373d 1ded 0dbd 5a23 76bc 2050 0e3c
00000190: 0cd4 82bc 0b81 55bd b799 113d 3ce5 943c
000001a0: 734a 03bd 7290 553d 1e6d f537 29a3 d73c
000001b0: b94c c03d 6850 91bd fe68 f8bb 0216 b73c
000001c0: 513a eebb 22aa 7ebd 91cf 403d 30af e4ba
000001d0: 2a11 82bd 59cd 15bc 6e5b d8bb 4b53 643c
000001e0: 0563 eebb f4a1 803c 4e45 96bc 238e a4bc
000001f0: 5d80 4fbc 167f 70bc df23 183c ac53 15bc
00000200: be63 5dbc 77e7 663d 6f47 a43c 9f71 98bb
00000210: 21c7 1b3c 69ee 2fbd 3138 8bbc 975d acbd
00000220: 6998 a1bc c886 04bd ceb6 1ebc fb45 8d3d
00000230: d1f1 41bc ab32 0fbd dda0 993c 32a4 633b
00000240: 5d4f 21bc 051d 44bd b9a4 e4bc 5d64 943c
00000250: 2dec 60bd 2069 12bd aba8 853d 2bb7 9c3b
00000260: c8d1 f1ba 0cf4 9f3b 382b 70bc 6e83 6abc
00000270: bfe8 0dbd 73d5 f73c 8b8e f13c 7e7d ddbc
00000280: 49a0 9bbd 4cad c8bb 90dc 543c f92f ebbc
00000290: 2c11 0bbc d31f f03c 64ed a23b e1ac 4dbd
000002a0: 2c62 df3b ad5c 9b3c c9ba 6d3c 0d22 ddb8
000002b0: 9585 fb3c 8691 7c3c 45ef d4ba 8c00 4ebd
000002c0: e420 f5bc 294f acbb a55a 4d3d afae 4dbc
000002d0: da92 04bc b180 20bd 23e5 b03d 7986 30bd
000002e0: 6116 0fbd 14ee afbc b691 0ebb ed4a 0d3d
000002f0: 9260 ba3a 4c5c d1bc 72c7 60bd 9ccf b5bd
00000300: dd45 343a 058b 473d d659 1fbc cc7f f6bd
00000310: 95ec 0ebd bdaa 28bc 3e0c 7f3d 0272 ca3c
00000320: 4205 6b3e 9a2c 823c ceb4 093c 38cb c8bc
00000330: 5cb5 83bd 4f06 00bd 1e0b 45bd 09fb 883b
00000340: 1b54 9d3b 93b5 cdbd c395 c13b be5d 66bc
00000350: f066 80bd 21ce aa3d ec0d 1b3d 1cca b6bb
00000360: bd74 0b3d bb4f e33b f24b 8dbc d122 68bc
00000370: d635 e5bc 4d5e f1bb 70cc 843b a1e1 73bc
00000380: 73e1 30bc 5ea2 0e3d e919 893b 729c 5e3d
00000390: c624 8f3c a76f 67bc 71dd 7bbd 0488 babc
000003a0: 870d e3bb c34c 043d 6167 95bc 2713 93bc
000003b0: 5330 7ebd 957a c13b ff5f 9bbb 4426 c6bb
000003c0: 1d3f eb3c 6c4e bebc 7542 1cbc 4c80 003d
000003d0: 90f5 bf3b 96cb a3bd 1a05 503a bd52 0e3d
000003e0: 3e64 37bc 51a5 fcbb 3aa7 1a3d 6fe0 3d3d
000003f0: 9635 19bb dd6e 483d b5d2 fcba 1d2a 4cbd
0.055795565 0.023111407 -0.013297807 0.016815454 -0.00029612408 -0.026450267 0.04703111 -0.021708628
-0.07440552 0.025711302 0.0346516 0.014424335 0.02443264 -0.007916145 -0.016062161 -0.017568948
0.038429476 0.061552044 -0.0017748108 0.0010546342 -0.0020452684 -0.011988977 -0.030987255 0.00032997478
0.016796978 0.0041544545 -0.019189402 0.020682557 -0.007922498 -0.011690828 -0.0024005244 -0.007293762
0.005057641 0.0017546098 -0.023074137 0.022365622 -0.029254122 -0.041825302 -0.020506918 0.019913547
-0.02294763 0.007187534 0.041941028 0.027912268 0.004661991 0.013743933 0.0142008485 0.0026322666
-0.0741054 0.016296402 0.011176612 -0.090834625 0.023067685 0.02364933 -0.040081363 -0.04375895
0.080948405 0.014624053 -0.0080968 0.07444349 -0.012974661 0.018438227 0.068256 0.053850565
0.001979964 0.024787862 -0.00874671 -0.022116352 0.0029294896 0.004303688 0.029316027 -0.02093361
-0.015217682 -0.005544575 0.0016038208 0.015493236 0.02328433 0.025152104 -0.0045498856 -0.008879052
-0.010668419 -0.051327284 -0.022276245 -0.04700862 0.028807139 0.021648781 0.040935725 0.051309746
0.026822586 0.027330661 0.085102625 0.023635002 0.0135585815 0.05527388 -0.03367031 -0.009995524
0.044836484 -0.034649957 -0.015023077 0.0086860955 -0.015970252 -0.052125018 0.035546985 0.018175714
-0.032053422 0.052139707 2.9257088e-05 0.026322918 0.09389634 -0.070954144 -0.0075808754 0.022349361
-0.0072701355 -0.06217397 0.04707295 -0.001744723 -0.0635093 -0.009143197 -0.006602696 0.013935874
-0.0072749876 0.015702225 -0.018343594 -0.020087307 -0.012664882 -0.014678737 0.009285896 -0.009114187
-0.01351255 0.056373086 0.020053593 -0.0046522166 0.009507925 -0.042951975 -0.016994568 -0.08416288
-0.019725995 -0.0323551 -0.009687139 0.06898113 -0.011837439 -0.03496043 0.018753463 0.003473532
-0.009845582 -0.047879238 -0.027910577 0.018114263 -0.054912735 -0.035744786 0.065263115 0.0047825775
-0.001844936 0.0048813876 -0.014658742 -0.014313562 -0.034645792 0.030253148 0.029486915 -0.027037378
-0.07598931 -0.006124174 0.012992039 -0.028709399 -0.008487981 0.02931205 0.004972147 -0.0502137
0.006817123 0.01896509 0.014509865 -0.00010544444 0.030703345 0.015415555 -0.0016245624 -0.05029349
-0.02992291 -0.00525846 0.050135273 -0.012553855 -0.008091653 -0.03918523 0.08637454 -0.043096993
-0.03493345 -0.02147583 -0.002175433 0.034495283 0.0014219454 -0.025556706 -0.054877706 -0.08877489
0.00068768655 0.048716564 -0.009726008 -0.12036094 -0.03489359 -0.010294613 0.062267534 0.024712566
0.22951224 0.015890408 0.008404924 -0.024510965 -0.06431076 -0.031256016 -0.048106305 0.0041803163
0.004801286 -0.10044398 0.0059077456 -0.014060436 -0.06269634 0.08340097 0.037855074 -0.0055782925
0.034046877 0.006936995 -0.017248128 -0.014168457 -0.027979773 -0.007365978 0.004052691 -0.014885337
-0.010795939 0.034822814 0.004183997 0.054348417 0.01747359 -0.014125741 -0.06149048 -0.022769935
-0.006929103 0.03229977 -0.018237771 -0.017953468 -0.062057804 0.0059045055 -0.0047416682 -0.006047042
0.028716618 -0.023230754 -0.009537329 0.031372353 0.0058581308 -0.07997815 0.00079353305 0.034746874
-0.011193333 -0.007710137 0.037757136 0.046356615 -0.0023377887 0.048933852 -0.001928887 -0.04984485

e_conv3.bias f4 [16]
00000000: 8426 4138 e4f5 08b6 d9a7 dbb7 3266 aab7
00000010: 21cd 9eb5 f36f cb37 04cf d1b2 54a9 7bb7
00000020: 3727 d2b7 4b93 7cb7 7b90 cc38 fac8 34b7
00000030: ad86 90b7 52d7 15b8 968c 4f36 e034 0638
4.6050656e-05 -2.0408706e-06 -2.6184995e-05 -2.0313168e-05 -1.1831618e-06 2.4251616e-05 -2.4424942e-08 -1.5000191e-05
-2.5052212e-05 -1.5054665e-05 9.7543896e-05 -1.077563e-05 -1.7228851e-05 -3.57249e-05 3.0927235e-06 3.1997333e-05

e_conv4.weight f4 [16, 16, 3, 3]
00000000: 1938 07bd 5e36 5f3d c4c5 7b3b e7c4 0abc
00000010: dc98 d33c 7161 04bd d726 1c3c 81ee c13c
00000020: 4599 9e3c dbd8 1dbd 7ff3 3dbc 3a8a 6e3c
00000030: e6ba 9ebc 6185 92bb a722 c93c 6156 ac3c
00000040: d7e2 41bd 2f0f 9a3b 6487 603b 4f33 ed3c
00000050: 77ae 6e3b 1e66 393c dd2e aabc a87c 063c
00000060: d50c 6fbd 5e54 4dbd 80be 38bd d8d5 e4bc
00000070: fe10 03bd b08a b5bd 28e2 61bb 46a6 003c
00000080: 317e 1c3b d379 093c 6796 e13c be85 063c
00000090: 6483 673b fca9 ffbb 20e3 903b 7cbb bf3b
000000a0: ad6c f6bb c289 893b cd0e 363c 41d0 28bc
000000b0: c0e9 293c cc28 033d 211a c4bc 8b11 20bc
000000c0: 1279 823c dbaa 9bbc c973 0a3d bc8c 0dbd
000000d0: b6c6 14bd de11 973c 2ea3 073d 3df0 1abc
000000e0: e9f6 7ebc cc8c 163d 3046 ccbb acee f6bb
000000f0: f043 0b3d 922e 8a3c 1d93 dcbb c808 52bb
00000100: 8525 8a3b e410 873c d0a6 023d 2aae b639
00000110: 074c 0a3c 0264 9dbc 214e 8dbc 5660 28bc
00000120: cf11 82bb 89f2 65bd cdb5 95bc d0bd c23c
00000130: 4562 6fbc 7b4f af3c 37f0 dd3c 7e26 39bc
00000140: 3445 883c 02b6 1abc 25ae 753d 6310 193d
00000150: f652 3eba 0ab5 e1bb 3952 113b cc23 81bc
00000160: f41a 2fbd 3669 9cbc e3bb 99bc a34e 103d
00000170: 88cd cbbb 7e66 afbc 8432 863c 5fcb b0bb
00000180: 49c1 06bd 2abf 673c 5122 75bc 68e0 7bbd
00000190: 18f5 cebb 053c 88bc 16e4 a3bc dd30 6c3a
000001a0: 3eef 51bd eabe edbc 0e2d 04bd 3d9d 83bd
000001b0: 1147 4fbc fa81 20bc c6b6 5bbc 6564 a23b
000001c0: 0ca1 85bc 50b2 42bc 375d 5b3c 1287 14bc
000001d0: 8a31 d1bb b55f d53c 9b1a 6bbd 54c7 c3bc
000001e0: a7ca 06bc 625e 0cbc def6 c5bb 604b 9d3d
000001f0: db5c 293c 53d1 853c c2a7 043c 18a1 64bd
00000200: ea3c 003d 4772 5a3d 8bb1 fe3a 2e60 8a3c
00000210: e4ad 8fbc e153 5a3d 644f c93b 42fb 53bb
00000220: 3f64 0b3d 6928 2a3c ed7d 09bd b511 8e3c
00000230: dce5 b3bb 6ad1 433c e161 143d 7e8b 2e3b
00000240: a6fa aa3d a139 bd3c 85a0 0d3d 1ac6 0f3d
00000250: 0b3a 1d3d 3fd4 a73c b437 4cbc 8f95 dbbd
00000260: a5a5 e7bd fd85 21bc 16a8 33bc 48a3 7ebd
00000270: 3e45 293d 0c30 75bc d8a7 3dbd a27d bc3c
00000280: 8847 e53c 4646 70bc 8755 993d d5fe 703d
00000290: f3d1 7c3d 7846 de3c 9f71 a33c 2500 debb
000002a0: f289 a0bd 347f 0ebd b181 e63a 1099 27bc
000002b0: 4a99 c53c a72f 1d3d 9b62 603c 49d2 45bd
000002c0: 38f4 a3bc 39a2 2c3d 6b2d f93c a5f6 123e
000002d0: 7517 30bd 6318 913a 5fa3 16bc 8d69 303c
000002e0: b062 793b 55f5 4fbc 2c91 debb e074 81bb
000002f0: 663c 193c d8d9 64bc d0df 5e3d 7c00 cfbc
00000300: df62 5e3c 0da9 393d 1a1c f23c 5dac b63c
00000310: 7688 a73d 2723 603c ad4a 993a 50d0 a6bc
00000320: e24a 103e fb7c 423d 2240 753c ab62 f53d
00000330: a0c6 6d3c df3e 36bd e9a6 113e 4cbf 48bb
00000340: 782e 85bd 49f7 5bbc 149b 373d 8cbd 843c
00000350: 8be1 9ebc 0ef0 f23d 8e9d 7d3c d568 77bd
00000360: 07cc 713c 9f3a 2fbd 8c58 bf3b 3943 633c
00000370: cde3 0fbd 5fd0 bf3c 131c 3b3a 592b 9abc
00000380: d97c 2ebc 84a7 173a 4497 f4bb f125 b53b
00000390: 491d c5bc 7664 873d 28a4 cabb 5ad0 6ebd
000003a0: 67a9 58bd 65a7 aebc 43cc 5d3d a7fc 293d
000003b0: bfb8 f23c 9c85 483d 92e3 853b bc0f e33c
000003c0: 739a 963c 865b 163d 2f60 af3d 2879 553a
000003d0: eb5d 0dbd 717a 0bbe 7309 61bd 8db2 e03c
000003e0: 7f1f 193d 0d2e 9fbd acf3 8abc ca7e d2bd
000003f0: 62b5 c8bd e463 f7bd b0cd f3bd 1d3a 11be
-0.033012483 0.054495208 0.0038417438 -0.008469797 0.025829725 -0.03231949 0.0095307445 0.023673298
0.019360194 -0.038536888 -0.0115936985 0.014559323 -0.01937623 -0.0044714664 0.024552656 0.021037282
-0.047335472 0.004701517 0.0034260387 0.02895513 0.0036419907 0.011315851 -0.0207743 0.008208431
-0.058361847 -0.050129287 -0.04510355 -0.027934 -0.031998627 -0.08864343 -0.0034467075 0.007852143
0.0023878927 0.008390862 0.027537538 0.008210598 0.0035326118 -0.007802246 0.0044216067 0.0058512073
-0.0075202794 0.00419733 0.011111927 -0.010303558 0.010370672 0.03202133 -0.02393824 -0.009769808
0.015926871 -0.019002369 0.033801828 -0.034558043 -0.036322318 0.018441137 0.033114605 -0.009456691
-0.015561798 0.036755368 -0.006233953 -0.007535776 0.034000337 0.01686791 -0.0067314045 -0.003204869
0.0042158985 0.016487546 0.031897366 0.00034843507 0.008440978 -0.019212727 -0.017249169 -0.0102768745
-0.003969408 -0.056139503 -0.018275166 0.02377215 -0.014610832 0.021400204 0.027092082 -0.011300681
0.016634561 -0.009442808 0.05998053 0.037369143 -0.0007260287 -0.0068880366 0.0022174253 -0.01576414
-0.042750314 -0.019093137 -0.01876635 0.035231244 -0.0062195696 -0.021411177 0.01638151 -0.0053953375
-0.032899175 0.014144698 -0.014961795 -0.061493307 -0.0063158385 -0.016630182 -0.02000622 0.0009009967
-0.05125355 -0.029021699 -0.03226953 -0.06426475 -0.012651221 -0.009796614 -0.013410276 0.0049558156
-0.016312145 -0.011883333 0.013388923 -0.009065406 -0.0063840793 0.026046613 -0.05739842 -0.023898758
-0.008227027 -0.0085674245 -0.0060413918 0.07680392 0.01033708 0.016335165 0.008096637 -0.055817693
0.031308092 0.05333164 0.0019431574 0.016891565 -0.017538972 0.05330265 0.0061434973 -0.0032345806
0.03403115 0.010385611 -0.033567358 0.017342428 -0.005490048 0.011951784 0.036226157 0.0026633437
0.08348589 0.023098769 0.03457691 0.035101034 0.038385432 0.020486949 -0.012464453 -0.107218854
-0.11310891 -0.009858605 -0.010965368 -0.062167436 0.0413258 -0.014965069 -0.046302646 0.023009125
0.02798821 -0.014665192 0.07487016 0.058836777 0.06172366 0.027133211 0.01995164 -0.0067749196
-0.07838811 -0.03478928 0.0017586258 -0.010229364 0.024120945 0.038375523 0.013695384 -0.048296247
-0.020013914 0.042146895 0.030417165 0.143519 -0.04299112 0.001106989 -0.009194224 0.010767353
0.0038053207 -0.012692769 -0.006792208 -0.0039507 0.009352779 -0.013967954 0.054412663 -0.025268786
0.013573377 0.045327235 0.029554415 0.022298986 0.08180325 0.013680256 0.0011695229 -0.020363003
0.14091066 0.047482472 0.014968904 0.1198171 0.014512688 -0.044493552 0.14223827 -0.00306316
-0.06503004 -0.013425657 0.04482563 0.016203664 -0.019394657 0.11862193 0.0154794585 -0.06040271
0.014758117 -0.042780515 0.005839413 0.013871008 -0.035129357 0.023414789 0.0007137667 -0.018819498
-0.010649883 0.00057851546 -0.0074643213 0.0055282046 -0.024061816 0.06610958 -0.0061841197 -0.05830417
-0.05289593 -0.021320054 0.054149877 0.041500714 0.02962911 0.048955545 0.0040859664 0.027717464
0.018384194 0.036708377 0.085632674 0.0008143359 -0.034513395 -0.13620926 -0.054940652 0.02742889
0.037383553 -0.07772455 -0.016961895 -0.10278089 -0.09800221 -0.120795995 -0.11904466 -0.14182325

e_conv4.bias f4 [16]
00000000: 56d1 0a38 8ccc 86b6 1324 a5b6 8167 4d37
00000010: 7cd7 b637 f64d 9738 2cd1 e6b7 5b64 d337
00000020: e225 22b7 362c ce36 e8ac 1bb7 60e2 c8b7
00000030: fe25 1737 07c4 9737 7044 ca38 4a09 ec37
3.3096723e-05 -4.0173236e-06 -4.921583e-06 1.2243051e-05 2.1796433e-05 7.2147624e-05 -2.751554e-05 2.5199892e-05
-9.664773e-06 6.1444252e-06 -9.278978e-06 -2.3947272e-05 9.009147e-06 1.8091885e-05 9.644858e-05 2.8137718e-05

e_conv5.weight f4 [16, 32, 3, 3]
00000000: 7275 1339 8ecc 8dbc f1b1 d73c aa6a a6bb
00000010: 6100 f7bc 2a98 373c d51c a6ba d0f5 86bc
00000020: c04a f43a ff01 46bc d627 413c c0ff f83c
00000030: 804c 2fbc 640a d7bc edd4 303c f37a 8ebc
00000040: 1ce3 8dbc 46dd d33c 783c b7bb f3ae e13c
00000050: f275 5c3c 56e7 92bc 93f8 91bc e7c7 84bc
00000060: 615b 9cbc af3b 23bb bc01 2abc 8448 23bc
00000070: 8464 a6bb bdf3 f1bc 7843 763c 6aca e23c
00000080: f3a7 9ebc 473a 45bc 2841 fbbc 7583 ae3c
00000090: 0012 623c db5a a73c bd49 eabb 2c1b 0c3d
000000a0: 2b2f 483d 4a3c c13b d1c2 67bd b150 24bc
000000b0: 3356 57bc a0d1 3bbb 8bd6 1abc 9de2 cf3c
000000c0: 6689 07bc f117 50bc 5dd2 d53c d5b7 80bc
000000d0: d284 77bc b11a e83c 69d8 5dbd bd8c 48bd
000000e0: 9e49 26bd e07b 973b 0b8a c23c 16a1 423c
000000f0: 9130 46bc 31f0 303c 19c3 65bc 9655 833c
00000100: 62c7 453c 0d7e 10bb 5c48 c53b 0957 1c3d
00000110: 0180 7cbc 757f 05ba 5049 58bb ee78 62bc
00000120: c668 693d 0459 d0bc e896 4cbc 8658 023d
00000130: a639 39bd e97b 16bd 3eb6 5a3d 19ae 55bc
00000140: 52a7 b93c d27b 583d 5774 12bc cb40 5dbd
00000150: ec8e af3c 55eb e1bb 39ed b9bc f9a7 fc3b
00000160: 36c8 22bc c4ed 05bd a300 b8bb 9250 f0bc
00000170: 442d 083b 64ba e33c ad43 ef3b b871 663c
00000180: ba34 dbbc cfea 043d b25c 153c b568 bd3c
00000190: f534 fa3c 94a8 4b3c 2287 6d3c 53ef 133c
000001a0: cf07 55bc 7885 05bc 0f23 f5bb 401a 4c3b
000001b0: 4641 7a3c 9ea5 9c3c c378 0a3c 49e7 b43c
000001c0: d88e 9a3c 6169 553b 0ae7 e53b e818 76b9
000001d0: 9260 32bc a182 bb3c d979 80bc 6926 4c3c
000001e0: 964a b53c f0be 0a3c e5a0 773c 14db 1dbb
000001f0: 50cb 53bc 2a68 b3bc 74fd 93bc fd56 3cbb
00000200: c24e 033d 50ab 3a3c 1d79 0bbc 9c0c 36bc
00000210: 9d16 aabc a636 463c 0e34 923b 9684 84bc
00000220: c1bf a2bc 3b23 3f3b bf2a 89bc ccf6 23bb
00000230: 0d4d 713b 0d0c 073c 5513 df3b 42e8 8b3b
00000240: 4793 3c3b 9e8b 28bb ccf7 02b6 8d56 9a3c
00000250: cdc9 f6bc 0f50 49bc 9f50 bc3c bff1 97bc
00000260: 8aae c1bb aaa3 34bc 8b3a a8bc 2501 36bd
00000270: 2905 62bc 2f67 1a3c fcfd 1d3c 67b6 373d
00000280: c7a9 d13b 7ef7 103a 9420 5eba 4f09 d0bb
00000290: b578 eabc 7dad 7bba 98f7 66bb c8b2 0c3c
000002a0: 2bd3 8a3c 1179 2a3c 08c5 77b9 b1a9 60bb
000002b0: 3d3c 54bc 3b9c f6bc cc45 84bc 5e3d cabb
000002c0: 6b55 8cbc fdcf e93b bb4c 663c 816a ee3c
000002d0: 4663 eb3c 9f9c a03c e92f e53b 9bce 5c3c
000002e0: f79d 3c3c fa4a 3e3c 58af 933c ded5 803c
000002f0: d096 aa3c f08f 66bb 999c 00bd 8b84 81bc
00000300: 41eb ddbc 5b82 40bd 9fe5 a9bc 3cba c4bc
00000310: 2553 12bd 29bf 34bc f539 6fbb fff9 aa3b
00000320: 5386 08bc 3207 e53a 97ba 65bd dba0 1d3c
00000330: 9f73 8cbc 3232 243c 322a 0a3c 6408 0d3d
00000340: 5779 c43c 5335 7dbb 0162 963c 41a3 633b
00000350: 8830 c9bb 793e ecba 2503 413c 5e1e 523c
00000360: cb38 3e3d 078b 7c3d cc66 1a3d 76bb 913c
00000370: 7a10 533d 1506 b53c 197b 473d 0d39 803d
00000380: 005d 843d 514b 1dbd 3e5d 8dbd 0116 a3bd
00000390: 352e a6bd 7ab5 bebd 5703 b1bd 2f07 a2bd
000003a0: c2f1 b4bd 49f6 a2bd f5aa 0bbc 6557 103c
000003b0: f955 c03c d968 afbc 799f 06bd 84ab c6bb
000003c0: d643 31bc b6b1 d6bc e2d3 1bbb b00a 8d3b
000003d0: 381b 1bbc da71 bd3b ec60 b9bc eb16 acbc
000003e0: 306d a0bc bcbf e63c 3193 ae39 e831 b43b
000003f0: c6b8 113d 13e7 e4ba 8f5a 963b b3de 673c
0.00014062764 -0.017309453 0.026329966 -0.0050786333 -0.030151548 0.011205712 -0.0012673388 -0.016474634
0.0018638 -0.012085437 0.011789283 0.030395389 -0.010699391 -0.026250072 0.010792953 -0.017392611
-0.017320208 0.025862347 -0.0055919252 0.027549243 0.013455855 -0.017932575 -0.017818725 -0.016208602
-0.019086542 -0.00249074 -0.01037639 -0.00996602 -0.0050779004 -0.029535169 0.015030734 0.02768441
-0.019367194 -0.01203782 -0.030670717 0.021302918 0.013798237 0.020429065 -0.0071499036 0.0342056
0.048873108 0.0058970796 -0.056582276 -0.010029004 -0.01314311 -0.0028658882 -0.009450565 0.025376612
-0.008272504 -0.012701021 0.026101286 -0.015712658 -0.01510735 0.02833304 -0.054161463 -0.048962343
-0.04059755 0.0046229213 0.023747465 0.011879226 -0.01209654 0.010799454 -0.014023566 0.016032021
0.012071462 -0.0022047788 0.006020589 0.03816894 -0.015411378 -0.000509254 -0.0033002682 -0.013822777
0.056984685 -0.025433071 -0.012487151 0.031822704 -0.045220993 -0.036739264 0.053396456 -0.013041996
0.022662792 0.05285246 -0.00893887 -0.05401687 0.021430455 -0.006894509 -0.022696124 0.0077104536
-0.009935429 -0.032697454 -0.0056153103 -0.029335294 0.0020778934 0.027798839 0.0073017688 0.014065199
-0.02675854 0.032450493 0.009116339 0.023121217 0.03054283 0.012430329 0.01449755 0.009029227
-0.01300235 -0.008149497 -0.007480986 0.0031143576 0.015274351 0.019121941 0.008451643 0.022082942
0.018866941 0.0032564031 0.0070160674 -0.00023469666 -0.010887282 0.022889437 -0.015683101 0.01246033
0.022130292 0.008468375 0.015114044 -0.002408688 -0.012926891 -0.021900255 -0.018065192 -0.0028738372
0.03205753 0.011393383 -0.008512762 -0.011111405 -0.020762736 0.01209799 0.004461772 -0.016176503
-0.019866826 0.0029165286 -0.016744016 -0.0025018929 0.0036819607 0.008242619 0.0068077245 0.0042696306
0.0028774308 -0.0025717984 -1.9515746e-06 0.018840099 -0.030125523 -0.012287154 0.022987662 -0.01854789
-0.0059106993 -0.011025349 -0.020535728 -0.044434685 -0.013795176 0.009424015 0.009643074 0.044851687
0.006398413 0.0005530043 -0.00084734824 -0.006348766 -0.02862201 -0.0009600742 -0.0035242792 0.008587547
0.016946396 0.010404841 -0.00023629155 -0.0034280831 -0.012953815 -0.030103793 -0.016146563 -0.0061718663
-0.017130574 0.00713539 0.01405638 0.02910352 0.02873386 0.019605933 0.0069942367 0.013476993
0.011512271 0.0116145555 0.018027946 0.01572698 0.020823866 -0.0035181008 -0.031399343 -0.015810272
-0.027089717 -0.046999317 -0.020739375 -0.024014585 -0.035723824 -0.011031904 -0.003650305 0.00521779
-0.008332807 0.0017473458 -0.05608615 0.00962087 -0.017144976 0.010021733 0.008432912 0.03443183
0.02398364 -0.003863652 0.018357279 0.0034734758 -0.0061398186 -0.0018023989 0.011780535 0.012824623
0.04644088 0.061656024 0.03769569 0.017789584 0.051529385 0.022097627 0.04870138 0.062608816
0.06463051 -0.038401905 -0.0690255 -0.07963181 -0.08114282 -0.09311958 -0.08643215 -0.079115264
-0.08835174 -0.079571314 -0.008524646 0.008809899 0.023478495 -0.0214123 -0.03286693 -0.0060629267
-0.010819396 -0.026207786 -0.0023777415 0.0043042526 -0.009466939 0.0057813944 -0.022629224 -0.021007022
-0.019583315 0.028167598 0.00033297532 0.0054991134 0.035576604 -0.0017463885 0.004588432 0.014152217

e_conv5.bias f4 [16]
00000000: d7e9 c737 60d5 4cb7 5b7f 1d38 e54d 5938
00000010: f829 8337 326c 8d36 22b8 7437 baa5 c7b7
00000020: a69f 1cb7 aff8 26b5 80c9 33b8 f95d e037
00000030: 57e1 d136 6aa2 1bb8 b8e5 a937 ad48 2638
2.3831539e-05 -1.2209028e-05 3.7550326e-05 5.1809377e-05 1.563596e-05 4.214723e-06 1.4586405e-05 -2.3799821e-05
-9.335496e-06 -6.22017e-07 -4.2864587e-05 2.674664e-05 6.2549184e-06 -3.710614e-05 2.0253341e-05 3.964517e-05

e_conv6.weight f4 [16, 32, 3, 3]
00000000: d795 673c 509d 92bb 2539 e3bb e5d0 c23c
00000010: 5c83 fd3b c874 ceb9 93ab 9a3c 0cd8 153b
00000020: e2bc 463c f89f 66bd 62f1 12bd 9a57 87bc
00000030: 78db 90bc ae85 4b3c b22d 1fbd 647c 3cbc
00000040: 0aed 18bd 06ba a9bd ff39 01bd 61fb 30bb
00000050: ab91 23bd 2ca1 b9bb f225 0e3d 7d2b 31bb
00000060: 57e3 a7bc 5f10 9b3c 704b 76bb 3ac2 733c
00000070: 1d6c b13a 5810 92bb ae68 6abc b6e0 623d
00000080: cdcf 0ebd b573 edbd d056 e73c 4dfb d93a
00000090: 788d 3fbd 4cd7 ed3a 6d43 a1bc a880 b8bd
000000a0: 7e6b 14bd 4c8b 3ebc ac3a 65bd fde5 62bc
000000b0: 4c9f babc ea21 a23a cfd8 7a3c 1077 8c3c
000000c0: 8855 3cbc 7a3d d6bb 6e67 133c 2e2c dcbb
000000d0: ab05 293c 84b9 9e3c 0b35 443d f983 7abc
000000e0: f53b fdbc 1a47 beba eedc 363b 22cb 133d
000000f0: 82ae 0ebd c805 90bc c23e 7a3c 08f9 74bd
00000100: 59cd 1a3d fa4b e6bc 1b16 cdbb 39da 493d
00000110: d0f4 d839 02e1 0abd a15d 423d 0a7d 8bbc
00000120: 261b 383d d871 963d 5deb f9bc 8d34 4bbc
00000130: dab1 673d f304 24bc 7e3f 533c 89ca eb3c
00000140: 1c2e a03b 59f0 9cbc 8f43 883d a080 8a3d
00000150: c619 c6bd 67e2 c8bc c452 083c 687c 093d
00000160: 331b 6a3d 02b9 883d 2fb5 41bd a12a 70bc
00000170: b891 efbc 57e8 2b3c becf c9bc 88a6 b1bb
00000180: 4d67 433c da0c 703b debf 493d 5cd7 863c
00000190: a46e afbb 2dba 0a3d 678d 29bc 3354 04bd
000001a0: f5e9 9abb ec29 95bb 5204 96bc 7188 f03c
000001b0: 303f 2b3e 6b08 1a3b deb1 f63d 5aec 3d3d
000001c0: 9b6d 80bd 8a84 f3bb 7daf 303e 3ad6 033d
000001d0: 023c 023e b4c6 35bc 77d7 0fbd 9983 aabd
000001e0: 603c a0bc 2a2c e9bc 59a6 3abd 3df8 9d3b
000001f0: ced8 373c ba36 b63c 38c4 29bd d61b dfbc
00000200: 0874 003d 1c59 8bbd 943b 6abd e5d3 cf3c
00000210: 4a40 b3bc 3b72 6bbd cb26 7f3c 7e63 77bd
00000220: e071 653c f96c 7abd 52a3 52bc a569 483d
00000230: 60cd 223d f8e0 70bd 4812 113d 771c e9bb
00000240: 2f55 9dbc d733 4a3c 73aa 98bb a038 0a3c
00000250: e4f8 f93c a74e 2bbb a087 033a 168e 643c
00000260: da78 b23b 8884 a63c 750d c23c 6779 fcbc
00000270: 18e3 8ebb 6de2 c1bc 7b0f e6bb b569 f4bb
00000280: e6a8 c93c 9ae6 ef3c 00aa ebbc 492a 973c
00000290: 13d7 9bbc 2d59 5d3b 96ed 4e3b b64f b8bc
000002a0: 22d6 56bc adaf efbb 1d24 cabb 1608 cebb
000002b0: 39df 023d 5c2b bbbc 2680 99bc 17db d4bc
000002c0: 85fc 79bc 5a55 91bc f3f2 a63c c203 08ba
000002d0: 6678 fc39 f56e 50bc 83e3 613c 6543 fe3b
000002e0: aea8 6dbd bddf cf3c 1589 eb3c 52fe ad3b
000002f0: cdd3 7f3c 7c83 303a fff1 b2bb 1375 113d
00000300: d94d e9bc 95b5 173c 37e7 89bc 7144 413c
00000310: 1b18 fbbb 2e69 dbbc 9293 4d3c 6e9a 9a3b
00000320: 6576 5b3c 6dc0 e8bc 83c1 8cbc f032 92bc
00000330: 9911 a23c 96f9 273c fef0 2abc 264b c4b9
00000340: b622 38bc 8663 85bc 379a f93b 3850 113c
00000350: eecf d63b 864d 823c dbcf 053c f02c 123d
00000360: 55b7 0abc 76b1 3bbc c751 dfbb 2651 7abc
00000370: 87ef 13bc 67da 3dba 5e33 aabc e5d6 0abd
00000380: b0ca 9ebc c111 ae3c 8122 8fbc edb4 96bb
00000390: 3633 a8bc 035b d2bb ac04 29bc ae69 0b3d
000003a0: 25a4 26bd 8d25 ee3c bc8c f2bb 62c2 46bc
000003b0: 36cb 33bc 64b1 943b 293f df3c 3ab1 c5ba
000003c0: 8c2c 16bb 6d81 313b db1c 1ebb 0336 053d
000003d0: 6d46 303b 66e9 883b a667 cabb 0250 85bd
000003e0: 51f4 0abd 7f2a 833c 2870 42bd ab11 2f3b
000003f0: 0f1c 163c f583 9abc 2b6c a3bc 0ce8 9c3c
0.014134846 -0.0044743195 -0.0069343024 0.02378125 0.0077366065 -0.0003937839 0.018880641 0.002286437
0.012129994 -0.0563049 -0.03587473 -0.016521264 -0.017682776 0.012422008 -0.038861938 -0.011504266
-0.037335433 -0.08287434 -0.03154945 -0.0027005302 -0.03993384 -0.005664965 0.034704156 -0.0027033978
-0.020494146 0.018928705 -0.0037581585 0.01487785 0.0013536249 -0.0044575147 -0.014307184 0.055390082
-0.034866143 -0.11594335 0.028239638 0.001663068 -0.046765774 0.0018145829 -0.019685471 -0.09008914
-0.036235325 -0.011629891 -0.055964157 -0.013848779 -0.022781037 0.0012369726 0.01531048 0.017146617
-0.011495002 -0.0065380903 0.0089968275 -0.006719134 0.010316293 0.01937557 0.04790215 -0.015290254
-0.030912379 -0.001451704 0.002790268 0.036082394 -0.034834392 -0.017580882 0.015273752 -0.059807807
0.03779349 -0.0281124 -0.0062587387 0.04928038 0.0004138113 -0.03390599 0.047452573 -0.017027397
0.044947766 0.07345933 -0.030507738 -0.012402666 0.056566097 -0.010010946 0.012893556 0.0287831
0.004888309 -0.019157575 0.06653511 0.067628145 -0.09672885 -0.02452202 0.008320514 0.03356591
0.057154845 0.066759124 -0.04729193 -0.014658601 -0.029244289 0.010492406 -0.024635192 -0.0054214634
0.011926484 0.0036628754 0.049255244 0.016460113 -0.0053537656 0.033868957 -0.010348654 -0.03230686
-0.004727597 -0.0045521166 -0.018312607 0.029361935 0.16723323 0.0023503553 0.12045644 0.04636798
-0.062709056 -0.0074315714 0.17254443 0.032186724 0.12718204 -0.011094738 -0.035117593 -0.083258815
-0.019560039 -0.028463442 -0.045568798 0.004820852 0.011221124 0.022242893 -0.041446894 -0.027234953
0.031360656 -0.06804106 -0.057185724 0.025369594 -0.021881241 -0.057481986 0.015573214 -0.060397618
0.014004201 -0.06113908 -0.012856321 0.048928875 0.039746642 -0.058808297 0.035417825 -0.007113989
-0.019205658 0.012341461 -0.004658991 0.008436352 0.030514188 -0.002613941 0.0005017463 0.013949892
0.0054465355 0.020326868 0.023688057 -0.030819608 -0.004360568 -0.023667539 -0.0070208884 -0.0074588903
0.02461667 0.029284764 -0.028767586 0.01845278 -0.019023454 0.0033775077 0.0031574718 -0.022498947
-0.013112577 -0.0073146434 -0.006168856 -0.006287585 0.031951163 -0.022847824 -0.018737864 -0.025983376
-0.015257959 -0.017740894 0.02037952 -0.0005188548 0.0004815489 -0.012721767 0.013787153 0.007759499
-0.058022194 0.025375241 0.02875189 0.0053098584 0.015614462 0.000673346 -0.005460977 0.03551204
-0.028479503 0.009259601 -0.016833885 0.011796103 -0.0076627857 -0.026783552 0.012547391 0.0047181165
0.013394927 -0.028412068 -0.017182117 -0.017846555 0.019783782 0.010252377 -0.010433434 -0.00037440023
-0.0112387445 -0.016282808 0.007617261 0.008869223 0.006555549 0.015906107 0.008167232 0.035687387
-0.008466561 -0.011455884 -0.0068151685 -0.015278136 -0.009029276 -0.00072423223 -0.020776447 -0.033896346
-0.019383758 0.0212487 -0.017472507 -0.0045992048 -0.020532232 -0.006419541 -0.010316055 0.03403633
-0.040683884 0.02907064 -0.0074020308 -0.012131305 -0.010973742 0.004537748 0.027251797 -0.0015082725
-0.0022914736 0.00270852 -0.0024126086 0.032522213 0.0026897446 0.004178214 -0.0061769066 -0.06509401
-0.033924405 0.016011475 -0.04747024 0.0026713412 0.009161963 -0.01886175 -0.01994904 0.019153617

e_conv6.bias f4 [16]
00000000: 26d8 df37 d107 46b7 b9e1 9537 648f c5b7
00000010: 67c7 dc37 e967 5a37 334e 7437 361b 1fb7
00000020: eb88 7eb7 9ce9 a235 40ca dc36 983e 08b7
00000030: b6bf 83b7 a3c5 ce37 62f4 8437 97cc b9b6
2.6684324e-05 -1.180354e-05 1.7867294e-05 -2.3551002e-05 2.6318898e-05 1.3018006e-05 1.45617405e-05 -9.483474e-06
-1.51714585e-05 1.213793e-06 6.580056e-06 -8.120805e-06 -1.570569e-05 2.4649145e-05 1.5849426e-05 -5.537247e-06

e_conv7.weight f4 [16, 32, 3, 3]
00000000: 01cb 8d3d 265e 7dbd adad 2ebd 88f1 123d
00000010: 4210 4abd c33c 90bd cd25 813d 1f98 e1bc
00000020: 8897 39bd c932 023d fd7f c53b 8717 663d
00000030: 7525 153d a999 003d dfff 053d 03ac 0dbd
00000040: 9b9c 2cbd 9488 683d 6321 aebc 7bcc c4bb
00000050: 0e45 533b 7f10 2dba 04eb 003e dd48 613c
00000060: 1da6 3dbd 6ba4 06be 369e 23bd d0cf 40bd
00000070: 758e 85bd f898 c6bd f9c6 2bbc 41d3 bdbc
00000080: c452 3cbc cb12 0d3e 8c65 a43d 5533 543d
00000090: 457f 5f3c 3a3e 983c 95ce b23b 449c 42bc
000000a0: 793c 0ebd 1476 f0bc 9689 c23c 55fb 843d
000000b0: 17e6 e13c 9ac1 753c 497f 3d3d 11d7 3a3c
000000c0: 6f22 1f3c d0cc 0dbd f329 2c3d b8a9 d3bc
000000d0: fd98 58bb d26b d4bb b0c9 2f3d f066 16bd
000000e0: 5f8e 95bc e6f4 633d f303 1d3b e2ca 4cba
000000f0: 489e 0b3c 9514 bcbc 31c4 30bd 3803 933d
00000100: 66c9 c23c 9660 a63d 5dcc c0bc 156c 88bb
00000110: 7ab2 223d eafb dfbd e119 aebd 95ca 49bd
00000120: 13c9 24bd bb1e 5e3a bfef 67bc c7dc c13c
00000130: 4f12 72bb 55a4 2dbd 9e75 453d 81fe 21bc
00000140: 7e6b 91bd 80a2 2d3d d5ca 4abd 905a e43c
00000150: 5535 063d c114 37bd e5d0 ef3c 3ecc 373d
00000160: 0fa5 f3bc 26da 7c3d bcd5 013d dc10 4b3d
00000170: 5e00 033d cc31 c43b 943d 1d3d a9a2 0d3d
00000180: 3262 1d3d e156 22bd 67eb 84bb 2847 70bc
00000190: b2a1 13bc ae6e b7bc 15c0 9fbc 70f4 813c
000001a0: fbdb 543b d0a7 37bd 0ed4 d7bc d35a 12bd
000001b0: 0e64 aebc f524 403c 7c74 0cbb 2d32 773b
000001c0: a4ec 0a3c 0f9f 81bc bdee c33b 178d bb3c
000001d0: 313a 61bc b4e5 9abc 3a25 51bc fdff 8fbc
000001e0: 65cd d0b9 8747 51bd 6332 013c e900 99bc
000001f0: 9c44 b63c 64da b23c c7cf 3cba d82b 4ebb
00000200: a8bd 45bc c10b 35bd 477b c43c 14b8 6e3c
00000210: cd4b 09ba 58c2 363c 5a06 323b cc65 19bb
00000220: 87dd 0f3d 94fd 8cbc ebc6 8ebc cd7f 2b3e
00000230: 3915 91bc f457 ffbc 6dc9 16bc eaae c6bc
00000240: 41f6 bcba f529 86bc e095 95ba f026 9a3c
00000250: ea46 b63b 22c0 36bc 3de5 0cbc e80a 5dbc
00000260: 665b 8d3c e4db 393c 5aeb 813b e3ef 843c
00000270: 999a 05bc ec98 16bd 1ba1 44bc 8c7e fb3b
00000280: 9337 6cbc 2530 d0bc 8550 253c 8786 253d
00000290: b027 863c 8714 aabc c81a b7bc bff0 093d
000002a0: b2b8 9b3c ca7f 833d b103 06bc 9846 103b
000002b0: 9677 1cbc eab5 babc 9089 36bc 9f94 4bbd
000002c0: 3b6c 8ebb 4fdd 7c3c 9bfe d03c b893 88bc
000002d0: ca43 843b 1f3c 17bd 207e bdbc e381 5d3b
000002e0: e769 fdbb 0a33 98bc 0769 bdbc 459e 203c
000002f0: c645 3fbb 4ed3 ec3c 6ac4 82bc 1f2f 013d
00000300: 865c 44bc 09da cfbc aba2 0fbd 5dd3 f83c
00000310: 7bf7 5b3d 6b50 b33c 190e 373c 0a2d 24ba
00000320: 5557 98ba 0635 e83b c4b2 26bc 4928 4d3c
00000330: b420 a43c 8558 b7bb 0c39 793d 12b2 8abc
00000340: b892 5b3c ef8b 08bb bebe 173c 14ea 823a
00000350: 34de 783c a90c ae39 208d 50bc 8bae a93a
00000360: 853b d83c d39c 85bc 7597 9cbd 5573 1c3c
00000370: 7345 923c cd6a 103c 901b f0bb 9fdc 1a3a
00000380: 0fe3 9d3c bbba 853c b054 34bc 025e eb3c
00000390: 9039 873c 409a 233c 1116 60bb 393d 08bc
000003a0: ccea d4bc 2baa b2bc fedf 553b 2950 4dbc
000003b0: 88fe e43c 2468 8fbc 4984 7d3d 31bf a8bc
000003c0: 9a3d 273d 76a0 68bd 0bae 573d 4bf0 933c
000003d0: 0bb0 bfbc b38e d33d d150 8f3d 664d 51be
000003e0: e0ea 06bd 00da 35bc 517a 6ebd 6918 d83c
000003f0: f056 c13c 3e8c 5ebc 3f9b 63bc d41a f4bb
0.069234855 -0.061857365 -0.0426461 0.035874873 -0.04933191 -0.070428394 0.06306038 -0.027538357
-0.045310527 0.031786714 0.0060272203 0.05617478 0.036412675 0.03139654 0.03271472 -0.03458787
-0.042141538 0.056770876 -0.021256154 -0.0060058213 0.0032237205 -0.00066018844 0.12589651 0.013750282
-0.046300996 -0.13148658 -0.039945804 -0.047073185 -0.06521312 -0.09697145 -0.0104844505 -0.023172023
-0.011494342 0.137767 0.08027181 0.051806767 0.013641183 0.01858436 0.0054567554 -0.011878077
-0.03472564 -0.029353179 0.023747247 0.0649325 0.027575536 0.0149997715 0.046263967 0.011403815
0.009712799 -0.034619153 0.042032193 -0.025837764 -0.0033050172 -0.0064825797 0.042916954 -0.036719263
-0.018256364 0.055653475 0.0023958653 -0.00078122143 0.008521624 -0.022959033 -0.043155853 0.07178348
0.023777675 0.08123891 -0.023534948 -0.004163275 0.03972099 -0.10936721 -0.0850103 -0.049265463
-0.04023082 0.0008473207 -0.014156281 0.023664845 -0.0036937182 -0.042393047 0.04820787 -0.009887339
-0.07100581 0.0423913 -0.049509842 0.027875215 0.032765705 -0.044697527 0.029274413 0.044872515
-0.029741792 0.06173148 0.031697974 0.049576625 0.031982772 0.0059873816 0.038388804 0.034578953
0.038423724 -0.039633635 -0.0040563825 -0.0146654025 -0.009010719 -0.022391643 -0.019500772 0.015863627
0.0032479751 -0.044837773 -0.026346233 -0.035731148 -0.021287944 0.011727561 -0.0021431735 0.0037719116
0.008479271 -0.015822915 0.0059793876 0.022894425 -0.013746784 -0.01890836 -0.012765223 -0.01757812
-0.00039825882 -0.051093604 0.007885548 -0.018677192 0.022249512 0.021832652 -0.0007202592 -0.0031459238
-0.012069143 -0.044200663 0.023984564 0.014570255 -0.00052374305 0.011154734 0.002716443 -0.0023406623
0.035123374 -0.01721076 -0.017428836 0.16747971 -0.017710315 -0.031169869 -0.009203297 -0.024253327
-0.0014416651 -0.016377429 -0.0011412464 0.018817395 0.005562653 -0.0111542065 -0.008599577 -0.01349137
0.017255496 0.01134393 0.0039648237 0.016227668 -0.008154535 -0.03676693 -0.012001301 0.0076749977
-0.014417547 -0.025413582 0.010089998 0.0404115 0.016376346 -0.020761741 -0.022351637 0.03367686
0.019008968 0.06420858 -0.008179591 0.0022014733 -0.009549996 -0.022791822 -0.011141196 -0.049702283
-0.004346398 0.015433623 0.02551203 -0.016672 0.0040364014 -0.03692257 -0.02313143 0.0033799342
-0.007733572 -0.018579025 -0.02312137 0.009803359 -0.0029185875 0.028909352 -0.015962798 0.03153908
-0.01198495 -0.025372522 -0.03506724 0.030374223 0.053702813 0.021888932 0.011172795 -0.0006262815
-0.0011622707 0.007086399 -0.010174457 0.012521812 0.020035125 -0.005595269 0.06084542 -0.016930614
0.01340168 -0.002083536 0.009261785 0.0009987974 0.015189696 0.000331973 -0.012728959 0.0012945695
0.026395569 -0.016310131 -0.07646076 0.009548982 0.017855382 0.008814526 -0.0073275045 0.0005907509
0.019273309 0.016324392 -0.011006519 0.02873135 0.01650694 0.009985507 -0.003419284 -0.008315378
-0.025990866 -0.021809658 0.003263473 -0.012531319 0.027953401 -0.017505713 0.061893735 -0.02059898
0.040830232 -0.056793652 0.052656215 0.018058917 -0.023399374 0.10329952 0.069978364 -0.20439681
-0.032938838 -0.0110993385 -0.05822212 0.026378827 0.023601025 -0.013583241 -0.013891994 -0.007449487

e_conv7.bias f4 [16]
00000000: b8f7 28b5 6de1 2936 3fe3 e9b6 2457 f136
00000010: fb0e 8eb6 8b60 a636 62ca 4537 1333 a136
00000020: f039 f537 7b17 e7b6 d652 3835 2f7f 0830
00000030: 8d1e 67b7 1e3e 9db6 f419 80b7 e110 b2b6
-6.2945355e-07 2.5314177e-06 -6.970396e-06 7.192504e-06 -4.2336737e-06 4.9584246e-06 1.1789236e-05 4.8041197e-06
2.9233255e-05 -6.88707e-06 6.8665884e-07 4.965725e-10 -1.3775786e-05 -4.686196e-06 -1.5270874e-05 -5.3067783e-06
