DED_Net/checkpoint/TCR-Net_param.pth (torch, 142471 bytes, 24 tensors)

e_conv1.weight f4 [16, 5, 3, 3]
0	0xbd5b7775	-0.05358072
1	0xbe3c4676	-0.18386254
2	0x3e6d8503	0.23195271
3	0xbd60f0b1	-0.05491704
4	0x3e98ca3f	0.29841802
5	0xbdafb7c5	-0.08579973
6	0x3e013e00	0.12621307
7	0x3e0e4f7e	0.13897511
8	0xbe6782a4	-0.22608429
9	0x3de0ffbc	0.109862775
10	0x3dce75ab	0.10081037
11	0x3e48f530	0.19624782
12	0x3e3ad118	0.18243825
13	0x3dfc6445	0.123238124
14	0x3e6c0a1f	0.23050736
15	0x3e86c4b2	0.26321942
16	0x3e239374	0.15974218
17	0x3d5c598f	0.053796347
18	0x3dca9d85	0.09893326
19	0xbd508c43	-0.050915014
20	0x3cd6b1c6	0.026207816
21	0xbb0bafee	-0.002131458
22	0x3e2a5974	0.16635686
23	0xbce3332b	-0.02773436
24	0xbc05a7d0	-0.008157685
25	0x3d951353	0.072790764
26	0xbcb4c6d9	-0.022067474
27	0x3ead75e1	0.33878997
28	0x3ec0ed45	0.37681022
29	0x3edc8a74	0.4307438
30	0x3ec904aa	0.3926137
31	0x3f02d6a0	0.5110874
32	0x3e62c4f4	0.22145444
33	0x3ed38861	0.41314986
34	0x3edc0a92	0.42976815
35	0x3e972d9e	0.2952699
36	0xbe47a7bb	-0.19497578
37	0xbe169021	-0.14703418
38	0xbe89c5f1	-0.2690883
39	0xbe55197c	-0.20810503
40	0xbe1d3451	-0.15351988
41	0xbd751fe0	-0.05984485
42	0xbe71d5e5	-0.2361675
43	0xbe7dff78	-0.24804485
44	0xbe7c8bde	-0.2466273
45	0xbe80c54f	-0.25150535
46	0xbe4dd5e0	-0.20101118
47	0x3e29cb10	0.16581368
48	0xbf0b583a	-0.544315
49	0x3f05b1fc	0.5222471
50	0x3e47a96b	0.19498222
51	0xbe062c81	-0.13102914
52	0xbef33cf4	-0.4750744
53	0xbe828e82	-0.2549935
54	0x3c0e7387	0.008694536
55	0xbea5b57d	-0.32365027
56	0xbe1e7070	-0.15472579
57	0xbe978dd0	-0.29600382
58	0xbe88f8b4	-0.26752245
59	0x3dae9cf5	0.08526031
60	0x3e247c1f	0.16062973
61	0x3e929c3e	0.28634828
62	0x3ec8d22d	0.3922285
63	0x3e49b9cf	0.19699787
64	0xbe7c19af	-0.24619173
65	0xbdb7e486	-0.08979134
66	0x3e9eb940	0.3100071
67	0xbe9036af	-0.2816672
68	0xbe5b5a23	-0.21421103
69	0xbcc136ac	-0.02358564
70	0xbe100f57	-0.14068352
71	0xbe17e075	-0.14831717
72	0x3eaf4ee2	0.3423987
73	0x3eb4b36d	0.3529314
74	0x3dfdee16	0.12398927
75	0x3ec76173	0.38941535
76	0x3e88b5a7	0.2670109
77	0x3c0a327f	0.008434891
78	0x3ddb173c	0.10697791
79	0x3e6b8086	0.22998247
80	0x3d9b03af	0.07569062
81	0xbca60168	-0.020264342
82	0x3c0e94a6	0.008702433
83	0xbca4bf4f	-0.020110754
84	0x3cd78170	0.026306838
85	0xbbe6f9fe	-0.0070488444
86	0xbc575afe	-0.013144253
87	0xbcf5ee82	-0.030020956
88	0xbc17c0dd	-0.009262291
89	0x3d390324	0.04516901
90	0xbedd3327	-0.4320309
91	0xbe88f9b3	-0.26753005
92	0xbe7588b4	-0.2397793
93	0xbf0a5a43	-0.5404398
94	0xbf3c3f5a	-0.73534167
95	0xbe83c358	-0.25734973
96	0xbe60ad7a	-0.21941176
97	0xbf0875a9	-0.53304535
98	0xbdcf3fde	-0.101196036
99	0x3e870e76	0.2637822
100	0x3e1ae66e	0.15126964
101	0x3e77af0d	0.2418787
102	0x3d4bb54c	0.049733445
103	0xbe069a57	-0.13144813
104	0x3de48402	0.11157991
105	0xbdf28c05	-0.11843113
106	0xbe83a105	-0.25708786
107	0x3e061cc6	0.13096914
108	0xbc4bd8ad	-0.012441796
109	0x3e56fd65	0.209951
110	0xbcdd4905	-0.027012357
111	0x3d34a3fe	0.044101708
112	0xbe7d8817	-0.24758945
113	0xbd62a5ac	-0.05533378
114	0xbe279289	-0.16364492
115	0xbebc6804	-0.36798108
116	0xbe0ef0cd	-0.13959046
117	0x3e9a624e	0.30153126
118	0x3ef815ed	0.48454228
119	0x3eb0060a	0.34379607
120	0x3ed93364	0.4242202
121	0x3e8ad346	0.27114314
122	0x3f017e50	0.5058336
123	0x3ebee71b	0.37285694
124	0x3f247a01	0.64248663
125	0x3ea08cc0	0.31357384
126	0x3e0757e2	0.13217118
127	0xbb899cf1	-0.004199617
128	0x3cc6bafa	0.02425908
129	0xbd403e94	-0.04693468
130	0xbe94227c	-0.2893256
131	0x3dc19680	0.09452534
132	0x3dcbe409	0.09955604
133	0x3d8d66cd	0.06904373
134	0xbcc498ac	-0.02399858
135	0xbd860f8d	-0.06545935
136	0xbda22563	-0.07917287
137	0x3d847eeb	0.0646952
138	0xbcfd570f	-0.030925302
139	0xbd90a504	-0.07062724
140	0xbdf937b4	-0.12168828
141	0x3d4931dc	0.049119815
142	0x3e27d748	0.16390717
143	0x3c4352eb	0.011921625
144	0x3e9a0011	0.30078176
145	0x3f1de061	0.616705
146	0x3f318da7	0.6935677
147	0x3ec41aca	0.38301688
148	0x3e875195	0.2642943
149	0x3f1a518e	0.6028069
150	0x3edddb62	0.43331438
151	0x3f070a06	0.5274967
152	0x3f0c3e81	0.54782873
153	0xbd91a02c	-0.071106285
154	0xbde2a802	-0.11067201
155	0x3d20aa48	0.039224893
156	0xbe894b5b	-0.26815304
157	0xbe8712c2	-0.263815
158	0xbda8c2a8	-0.08240253
159	0xbd4e2a5d	-0.05033337
160	0xbc9c343e	-0.01906788
161	0x3e0f235d	0.13978334
162	0xbedc43d8	-0.4302051
163	0xbeed2181	-0.46314624
164	0xbefa55af	-0.48893496
165	0xbf18b4c6	-0.5965084
166	0xbebd96c5	-0.3702909
167	0xbf401fcd	-0.75048524
168	0xbf34edf7	-0.70675606
169	0xbf0d9e75	-0.5531991
170	0xbf2851f6	-0.6575006
171	0xbd21fded	-0.039548803
172	0x3e43a020	0.19104052
173	0x3e4b0ee4	0.19829899
174	0x3d75d56a	0.06001798
175	0xbd8b55c6	-0.06803469
176	0x3e3f3fa8	0.18676627
177	0x3db19a3a	0.086719945
178	0x3cc40cc3	0.023931867
179	0x3d26b896	0.04070338
180	0x3e0585a9	0.13039269
181	0x3e3e48d1	0.18582465
182	0x3eb6c3e8	0.3569634
183	0x3d7c3393	0.061572623
184	0x3e70f8cb	0.23532407
185	0x3de92614	0.11384216
186	0xbc94ed78	-0.01817964
187	0xbd5977f7	-0.053092923
188	0x3e0982a1	0.13428737
189	0x3ec67d8d	0.38767663
190	0x3efd0dd8	0.49424624
191	0x3e545cbe	0.20738503
192	0x3ec1cf1b	0.3785332
193	0x3f0b4f21	0.54417616
194	0x3ea59f9d	0.32348338
195	0x3d1c5aae	0.038172416
196	0x3e486739	0.19570626
197	0x3db93a28	0.090442955
198	0x3cbe4a1c	0.023228697
199	0x3ee75848	0.4518454
200	0x3e7c9989	0.24667944
201	0x3d47787d	0.04869889
202	0x3f205d08	0.62641954
203	0x3ecf8ad4	0.40535605
204	0xbc211b38	-0.00983315
205	0x3dae40f8	0.085084856
206	0xbcfc2159	-0.03077762
207	0xbe8285b7	-0.2549264
208	0x3cbf2f2f	0.023337929
209	0xbc990ef4	-0.018683888
210	0xbe188a9c	-0.14896625
211	0xbd855301	-0.06509972
212	0xbe50ce1a	-0.20391122
213	0xbe9abf43	-0.30224046
214	0xbdedd28e	-0.11612426
215	0xbddaa548	-0.10676056
216	0xbc76a8b4	-0.01505487
217	0xbcefe1fc	-0.029282562
218	0x3dc96c55	0.09835116
219	0xbb9f2831	-0.004857086
220	0x3d815749	0.063154764
221	0xbd4fac62	-0.050701506
222	0x3d6a3449	0.05717877
223	0xbd4dbb4e	-0.050227456
224	0x3d37111f	0.044694062
225	0xbe7576c3	-0.23971085
226	0xbf17bec7	-0.5927548
227	0xbe80768c	-0.25090444
228	0xbe79e1d9	-0.2440256
229	0xbf1cb554	-0.61214185
230	0xbefe0757	-0.49614975
231	0xbe82574e	-0.25457233
232	0xbf13f860	-0.57800865
233	0xbe1d099e	-0.153357
234	0x3bdbe15d	0.006710215
235	0xbe81e7a6	-0.25372046
236	0xbd698657	-0.057012882
237	0xbf3eac89	-0.7448202
238	0xbf03d1b5	-0.5149186
239	0xbe972dcd	-0.2952713
240	0xbe972848	-0.2952292
241	0xbe42a426	-0.1900793
242	0xbea083c3	-0.31350526
243	0x3ee49d62	0.44651324
244	0x3f05e307	0.5229954
245	0x3ebfa9ef	0.37434337
246	0x3eabf50f	0.33585402
247	0x3f45c0d1	0.7724734
248	0x3efcdfd7	0.49389526
249	0x3e603297	0.21894298
250	0x3f2d4224	0.6767905
251	0x3e853f48	0.26024842
252	0x3da6b4db	0.08139964
253	0xbc9ec946	-0.019383084
254	0xbcc2590d	-0.023724103
255	0x3f09f1a5	0.53884345

e_conv1.bias f4 [16]
0	0x3d97b458	0.07407445
1	0x3bd509bf	0.006501406
2	0x3b48efda	0.003066054
3	0xbdbabae6	-0.09117679
4	0xbb3b1719	-0.0028547703
5	0xb9b05f9f	-0.0003364058
6	0x3d1bba99	0.03801975
7	0xbd893255	-0.06699053
8	0x3b873c2b	0.0041270456
9	0x3bc483d5	0.005997161
10	0x3c8be0d8	0.017074987
11	0xbf03e7fc	-0.51525855
12	0x3b9389df	0.0045025195
13	0x3c396e1d	0.011317757
14	0x3d9e359a	0.077250674
15	0x3ac7a378	0.0015231213

e_conv2.weight f4 [16, 16, 3, 3]
0	0x3ec7845f	0.3896818
1	0x3e8c2b8b	0.2737697
2	0x3e4022c6	0.18763265
3	0x3ead2b25	0.3382198
4	0x3e6fba1d	0.2341084
5	0x3e52e770	0.20596099
6	0x3e46f37d	0.19428821
7	0x3e6f783e	0.23385713
8	0x3d87ba5a	0.066273406
9	0xbe51ecb1	-0.20500447
10	0xbdec3610	-0.11533749
11	0x3d758b57	0.059947338
12	0xbd82d61d	-0.06388495
13	0x3d8303fd	0.06397245
14	0x3e067bd5	0.13133176
15	0xbd563169	-0.052293215
16	0x3d14b9e7	0.036310103
17	0x3d0398de	0.032128207
18	0xbdddc42c	-0.108284324
19	0x3e19031b	0.14942591
20	0xbe0c6b35	-0.13712771
21	0xbe7ef2c3	-0.24897294
22	0x3d4d9c19	0.050197694
23	0x3dab6a2e	0.083698615
24	0xbe7fcf1f	-0.24981354
25	0xbcbaa7be	-0.022785064
26	0xbe5ad475	-0.21370108
27	0x3db72ce7	0.08944111
28	0x3dabd022	0.083893076
29	0x3c8adc38	0.016950712
30	0xbec13d13	-0.37741908
31	0xbd1b228d	-0.037874747
32	0x3d04c0a9	0.032410298
33	0xbe5076c9	-0.20357813
34	0xbda3c0ac	-0.079957336
35	0x3eb67c96	0.35641927
36	0xbeb4f126	-0.35340232
37	0xbd21faab	-0.039545696
38	0xbe98d97c	-0.29853427
39	0xbe9d9553	-0.30777988
40	0xbe17778b	-0.14791696
41	0xbe93f29e	-0.2889604
42	0xbf05bd56	-0.5224203
43	0xbe9544fa	-0.29154187
44	0xbe9f8425	-0.31155506
45	0xbdb37813	-0.08763137
46	0x3a5777bc	0.0008219441
47	0x3e045e8f	0.12926696
48	0xbe468d3a	-0.19389811
49	0xbd04d76f	-0.032432016
50	0x3e3742c0	0.17896557
51	0xbe095da7	-0.13414632
52	0xbcd89d23	-0.026442116
53	0x3dcf53f4	0.10123435
54	0xbdf14953	-0.117815636
55	0xbd7c2ae6	-0.06156435
56	0xbc60df00	-0.013725042
57	0xbeb24030	-0.34814596
58	0xbe24a521	-0.16078617
59	0xbe17c259	-0.14820231
60	0xbed58f4d	-0.41710892
61	0xbe8196d0	-0.25310373
62	0x3d2f6d11	0.042828623
63	0xbe95cb4f	-0.29256675
64	0xbea855a1	-0.3287783
65	0xbe2b8f6a	-0.16753927
66	0xbe944169	-0.28956154
67	0xbe9ae881	-0.3025551
68	0xbe3cb23d	-0.18427368
69	0x3d4e807b	0.050415497
70	0xbd004bf2	-0.031322427
71	0xbdc86553	-0.09784951
72	0x3eb327e3	0.3499137
73	0x3e3b1214	0.18268615
74	0xbc65b2c3	-0.014019671
75	0x3e729ffd	0.23693843
76	0xbdedb409	-0.116066046
77	0xbea35bac	-0.31905878
78	0x3e4381c7	0.19092475
79	0xbe27873e	-0.16360185
80	0xbec88907	-0.39167044
81	0xbe52bddb	-0.20580237
82	0xbe64fa67	-0.22361146
83	0x3d6cb257	0.057787266
84	0x3d5eb2a7	0.054369595
85	0xbe3b1cbc	-0.1827268
86	0x3e3646b0	0.17800403
87	0x3c7ce015	0.015434285
88	0x3ba37a41	0.004988939
89	0x3e36e358	0.17860162
90	0x3e18a790	0.1490767
91	0x3e031518	0.12801015
92	0x3d674e63	0.05647124
93	0x3c9ca285	0.019120464
94	0x3db1e84a	0.08686884
95	0xbde7b022	-0.113128915
96	0xbcc4cad9	-0.024022507
97	0xbbc9b364	-0.006155418
98	0xbd74ce06	-0.05976679
99	0xbe873d92	-0.26414162
100	0xbe43a889	-0.1910726
101	0xbd57e1bb	-0.052705508
102	0xbeaa47e3	-0.3325797
103	0xbe89b1bc	-0.26893413
104	0xbe5c949c	-0.21541065
105	0xbe58e212	-0.21179989
106	0xbe192aed	-0.14957781
107	0xbe17b491	-0.14814974
108	0xbe371394	-0.17878562
109	0xbd28679f	-0.041114446
110	0x3e22af43	0.1588717
111	0xbc4e997c	-0.012609836
112	0xbc82d4fd	-0.015970701
113	0xbd8da909	-0.069170065
114	0x3da72d43	0.0816293
115	0x3d2dbf4c	0.042418763
116	0xbd4eb4bb	-0.050465327
117	0x3d24da79	0.040247414
118	0xbdd264ec	-0.102731556
119	0x3d44429c	0.047915086
120	0x3dcc720a	0.09982689
121	0xbe33b3f4	-0.17549115
122	0xbddda3b7	-0.10822242
123	0x3e2b5c30	0.16734385
124	0x3cf9f570	0.030512542
125	0xbd302694	-0.04300554
126	0x3f1c5164	0.6106169
127	0x3ebc6d9b	0.36802372
128	0x3ebfb778	0.37444663
129	0x3f20c2ef	0.62797445
130	0x3e84e6c8	0.25957322
131	0x3e6d16dd	0.23153253
132	0x3f2f21a2	0.68410695
133	0x3efc337f	0.49258038
134	0x3f14019d	0.5781496
135	0xbea48029	-0.32129028
136	0xbea2f005	-0.31823745
137	0xbe8f5f8c	-0.28002584
138	0xbf29bac7	-0.66300625
139	0xbee0519e	-0.4381227
140	0xbea7ba2f	-0.32759234
141	0xbf431f84	-0.76219964
142	0xbf24ac63	-0.6432554
143	0xbf02ff21	-0.51170546
144	0x3d81793c	0.06321952
145	0x3cb6d9a1	0.02232057
146	0xbd367680	-0.044546604
147	0x3d533bce	0.051570706
148	0xbe639e24	-0.22228295
149	0x3d260290	0.040529788
150	0xbc0daa5f	-0.008646577
151	0x3de4707a	0.11154266
152	0x3d87ad5c	0.066248626
153	0xbde69d4d	-0.112604715
154	0xbd05123f	-0.032488104
155	0xbd99f31d	-0.07517073
156	0xbdbd89b4	-0.092547804
157	0xbd503eef	-0.05084127
158	0x3d8fee41	0.07027865
159	0xbcab8999	-0.020939635
160	0x3e0a30ea	0.13495222
161	0x3d9d5490	0.07682145
162	0xbd692256	-0.05691751
163	0xba1ce6cf	-0.0005985321
164	0xbd0d30de	-0.03447043
165	0x3e512282	0.2042332
166	0x3dc6ab76	0.09700672
167	0x3d4b8637	0.049688544
168	0xbbd757c4	-0.006571742
169	0xbd2fbb1d	-0.042903055
170	0xbd774212	-0.060365744
171	0x3e0b095c	0.13577789
172	0x3cfbc4c3	0.030733472
173	0xb98cad26	-0.00026831886
174	0xbd450e9c	-0.048109636
175	0xbe104d32	-0.14091948
176	0xbd30ff8c	-0.04321246
177	0xbd9e2e01	-0.07723618
178	0x3d749e9e	0.05972158
179	0x3c35bd99	0.011092567
180	0xbdd657e3	-0.10465982
181	0xbdb83fe3	-0.089965604
182	0xbcd25efe	-0.025680061
183	0xbe424606	-0.18972024
184	0x3e49a7a6	0.19692859
185	0x3e6dc17c	0.2321834
186	0x3d3d9ff5	0.046295125
187	0xbc6476c6	-0.013944333
188	0x3ced86be	0.028994914
189	0xbb7fd030	-0.0039034002
190	0x3cd4c878	0.025974497
191	0x3d044c9b	0.03229962
192	0xbde07fbd	-0.10961864
193	0xbdb3853b	-0.08765646
194	0x3d61def6	0.055144273
195	0xbc4e9a42	-0.01261002
196	0x3dafb86c	0.085800976
197	0x3cc729e7	0.024311973
198	0xbc73c9bc	-0.01487964
199	0x3d0157d1	0.03157789
200	0xbd58db46	-0.05294349
201	0xbc8eaea7	-0.017417265
202	0x3cea7f82	0.028625254
203	0xbc0f4397	-0.008744142
204	0xbc08ad27	-0.008342064
205	0xbd548597	-0.051885214
206	0x3ca2d70d	0.019877935
207	0x3d09c6ac	0.033636734
208	0xbd77a8bb	-0.06046365
209	0xbcb970f2	-0.022636864
210	0x3e0525ea	0.13002744
211	0x3e106474	0.1410082
212	0xbd9045c7	-0.07044559
213	0xbdfc6089	-0.123231
214	0x3d072e61	0.033003215
215	0x3bd25455	0.0064187446
216	0x3d4109aa	0.047128357
217	0x3e55c6a7	0.20876561
218	0x3d7a43e3	0.061099898
219	0xbdc9af3c	-0.098478764
220	0xbe8440ec	-0.2583078
221	0xbca744cf	-0.020418553
222	0x3d25eeaa	0.04051081
223	0x3db7357b	0.089457475
224	0x3e1dbea2	0.15404752
225	0x3dd388fe	0.103288636
226	0xbd0a59a5	-0.033776898
227	0xbca5098f	-0.02014616
228	0xbe964ee8	-0.29357076
229	0x3e06979c	0.13143772
230	0x3e03c586	0.12868318
231	0x3d174543	0.036931287
232	0xbe330193	-0.1748107
233	0xbd1a56ae	-0.03768032
234	0xbc82a5bc	-0.015948169
235	0xbd024110	-0.03180033
236	0x3d451503	0.04811574
237	0x3e1757be	0.14779565
238	0xbde3cd08	-0.11123091
239	0x3d4f3736	0.050589763
240	0xbc6633ea	-0.014050463
241	0x3d3e2300	0.046420097
242	0x3d9eda34	0.07756463
243	0x3d66ed01	0.05637837
244	0x3daa0a23	0.08302715
245	0xbcbdca18	-0.023167655
246	0xbe1a6225	-0.15076502
247	0xbe30d5fb	-0.17269127
248	0xbe3bed4f	-0.18352245
249	0x3d83f8fb	0.06443974
250	0x3b841af8	0.0040315352
251	0x3c276704	0.010217432
252	0x3e605445	0.21907146
253	0xbe1943ff	-0.14967345
254	0x3e10c477	0.14137445
255	0xbe7cd42a	-0.24690309

e_conv2.bias f4 [16]
0	0xbdf1c268	-0.11804658
1	0x3d102a5c	0.035196647
2	0xbd9070eb	-0.070527874
3	0x3d47002b	0.048584145
4	0xbf512392	-0.816949
5	0x3e5844c6	0.21119985
6	0x3ed42b0d	0.41439095
7	0x3e636c33	0.22209243
8	0x3c3af33a	0.011410529
9	0x3dabc387	0.08386903
10	0x3de77c03	0.1130295
11	0x3d557dee	0.05212205
12	0xbc93d24d	-0.018044615
13	0x3e04dfa5	0.12975939
14	0x3ceb3b69	0.028714852
15	0x3b72ff22	0.003707834

e_conv3.weight f4 [16, 16, 3, 3]
0	0x3e393bfc	0.18089288
1	0x3d2ee38d	0.042697478
2	0x3e9706ed	0.2949747
3	0x3e2818fc	0.16415781
4	0x3e1ede88	0.15514576
5	0x3eab2cf6	0.3343274
6	0x3e25f0b8	0.16205108
7	0x3e25ca8d	0.16190548
8	0x3e09bbee	0.13450596
9	0xbde40575	-0.11133853
10	0x3deaad99	0.114588924
11	0x3e2d0aff	0.16898726
12	0xbe296751	-0.16543318
13	0xbea6c93a	-0.325754
14	0x3d7250e0	0.05915916
15	0x3e4d29aa	0.20035425
16	0x3e0bf3b9	0.13667192
17	0x3e1a4967	0.15067063
18	0xbe194d14	-0.14970809
19	0xbc77bc56	-0.015120586
20	0x3db4d53f	0.08829736
21	0xbd3472f8	-0.044054955
22	0x3df3e8d0	0.1190964
23	0x3dafe7c4	0.08589128
24	0xbdbf92b0	-0.0935415
25	0xbd0656cd	-0.032797623
26	0x3c51a26c	0.012795072
27	0x3f7ab03e	0.97925174
28	0x3f95b65f	1.169628
29	0x3f9ed44f	1.2408541
30	0x3fa03118	1.2514982
31	0x3fca9f3e	1.5829847
32	0x3fc58e54	1.543406
33	0x3f852430	1.0401669
34	0x3fa8e03a	1.3193429
35	0x3fa3fe0c	1.2811904
36	0xbefef292	-0.4979444
37	0xbee07b9f	-0.43844315
38	0xbf1c41e2	-0.6103803
39	0xbe1fd1d1	-0.15607382
40	0xbf21c6bb	-0.63193864
41	0xbf1038e6	-0.5633682
42	0xb7b0c922	-2.1074495e-05
43	0xbf2fdc83	-0.6869585
44	0xbf075cb7	-0.52875847
45	0x3d026846	0.031837724
46	0xbd4a8ebc	-0.04945253
47	0xbe5f5157	-0.21808372
48	0x3dca4c73	0.09877863
49	0xbb5dbad0	-0.0033833273
50	0xbe1df4fe	-0.15425488
51	0x3d891b07	0.06694608
52	0x3e458628	0.19289458
53	0x3d50249d	0.050816167
54	0x3d564b39	0.05231783
55	0x3c213c99	0.009841108
56	0x3dba955c	0.09110519
57	0xbe5605e9	-0.20900692
58	0x3e96fe55	0.29490915
59	0x3e24c8d9	0.16092242
60	0x3e6472cd	0.22309418
61	0x3d8d8098	0.06909293
62	0x3c1a3847	0.009412832
63	0xbebc15a4	-0.3673526
64	0xbea331d4	-0.31873953
65	0xbe9145dd	-0.28373614
66	0xbdb31bd4	-0.08745542
67	0x3e1dd5c9	0.15413584
68	0x3f2e6d87	0.68135875
69	0x3dc6fe58	0.09716481
70	0xbe62a7f8	-0.22134387
71	0x3e80a91a	0.25129014
72	0xbda81951	-0.08207954
73	0x3ac35103	0.0014901463
74	0xbd29c180	-0.0414443
75	0x3d4e88c1	0.050423387
76	0x3be17dc5	0.006881448
77	0x3dc3b5e0	0.09556174
78	0x3d212676	0.03934332
79	0xbe128520	-0.14308596
80	0xbe02bd4a	-0.1276752
81	0x3d632323	0.05545343
82	0xbc9b2daa	-0.018942673
83	0x3c09bb87	0.008406526
84	0x3dac0ab0	0.08400476
85	0xbed5b440	-0.41739082
86	0xbec54fc4	-0.3853742
87	0x3e2b9597	0.16756283
88	0xbdedc823	-0.11610439
89	0xbdaea843	-0.08528187
90	0xbcf77dda	-0.030211378
91	0x3e101493	0.14070348
92	0xbe437c04	-0.19090277
93	0xbe23887f	-0.15970038
94	0x3d6b11de	0.057390086
95	0x3d3a6333	0.04550476
96	0x3d548908	0.051888496
97	0x3dde0a48	0.10841805
98	0x3e322e48	0.17400467
99	0xbde52814	-0.11189285
100	0x3d64596e	0.05574935
101	0x3e468599	0.19386901
102	0xbe565650	-0.20931363
103	0x3ee85ff8	0.45385718
104	0x3ed42e84	0.4144174
105	0xbea59d1c	-0.32346427
106	0xbee29754	-0.4425608
107	0xbe2ae2f7	-0.16688143
108	0xbe0cb73f	-0.13741778
109	0x3dd92ebb	0.10604616
110	0x3d062c66	0.032757185
111	0x3e2312b5	0.15925105
112	0xbd8df3f2	-0.069312945
113	0x3e436776	0.19082436
114	0x3e285c38	0.16441429
115	0x3e12b4e1	0.14326812
116	0x3de408d3	0.111344956
117	0xbe2b395d	-0.16721101
118	0x3def805c	0.116944045
119	0x3e4a9369	0.19782795
120	0x3b8ad55d	0.0042368607
121	0x3edcb465	0.4310638
122	0x3e2cc0cc	0.16870421
123	0xbe47b2b8	-0.1950177
124	0xbe6faba4	-0.2340532
125	0xbe65b613	-0.22432737
126	0xbdf2aa06	-0.11848836
127	0xbe497f20	-0.196774
128	0xbd4fb110	-0.05070597
129	0xbda90bf3	-0.08254232
130	0xbed83a0f	-0.42231795
131	0xbe040fec	-0.12896699
132	0x3d960c6f	0.0732659
133	0xbdfd5957	-0.12370556
134	0x3d81f0cb	0.06344756
135	0x3eaf68f3	0.34259757
136	0xbdd5f2fa	-0.10446735
137	0x3e5bb6e6	0.21456489
138	0xba1f907e	-0.00060868997
139	0xbf86d6d0	-1.0534306
140	0xbea65ed7	-0.32494232
141	0x3ebfac49	0.3743613
142	0xbd877136	-0.0661339
143	0x3e944489	0.28958538
144	0x3dd99059	0.10623235
145	0x3c4b81d1	0.012421087
146	0x3e60d0e8	0.21954691
147	0x3d2c9ab1	0.042139713
148	0x3ddb3918	0.10704249
149	0xbddaaa99	-0.1067707
150	0xbe96a14e	-0.2941994
151	0x3c67357a	0.014111871
152	0xbc6c38f1	-0.014417873
153	0x3bb89f07	0.005634192
154	0x3d8b6cb4	0.06807843
155	0xbe20e86e	-0.15713665
156	0xbdf05163	-0.11734273
157	0x3dd50e3a	0.10403104
158	0x3e93c73b	0.28862938
159	0xbda6bc73	-0.081414126
160	0xbd6f3a23	-0.058405053
161	0xbd8b2a39	-0.06795163
162	0x3d92b16d	0.071627475
163	0xbd3fb592	-0.04680402
164	0x3cb5426c	0.022126399
165	0xbdbb0aa1	-0.09132887
166	0x3ddd70c5	0.10812525
167	0xbdfe79cc	-0.12425575
168	0xbda006b4	-0.078137785
169	0x3dbd0895	0.092301525
170	0xbc7fbb3f	-0.015608608
171	0xbe934e6d	-0.28770772
172	0xbe6f196f	-0.23349546
173	0xbdf32f68	-0.118742764
174	0x3cc3c1df	0.023896156
175	0x3dfbfe8b	0.123044096
176	0x3d46ce95	0.048536856
177	0x3dda3fd9	0.10656709
178	0x3d0c9ce2	0.034329303
179	0x3da6c0b0	0.08142221
180	0x3dcbafaf	0.09945618
181	0x3d4b612d	0.04965322
182	0xbdb2474f	-0.08705007
183	0xbdcdf13c	-0.100557774
184	0xbde2e92e	-0.11079632
185	0xbe345da5	-0.17613848
186	0xbe12d99f	-0.14340828
187	0x3dddccaa	0.10830052
188	0x3e80066f	0.25004908
189	0x3d37ba9a	0.04485569
190	0x3e13ddb7	0.14440046
191	0xbe18a720	-0.14907503
192	0xbdae65c3	-0.08515503
193	0xbddd2ac8	-0.107991755
194	0x3e2d09f1	0.16898324
195	0x3dd14c23	0.102196
196	0xbd4563ed	-0.048191
197	0xbbce6fd7	-0.0062999534
198	0x3d3c1aea	0.045924105
199	0xbd154638	-0.03644392
200	0x3e30677b	0.17226975
201	0x3d8d5882	0.06901647
202	0xbca2552a	-0.019816
203	0x3c8fb105	0.017540464
204	0xbe038089	-0.12842001
205	0xbdf3e41b	-0.11908742
206	0x3d2c7950	0.04210788
207	0xbdc5b43b	-0.09653517
208	0xbd82484f	-0.06361448
209	0xbe15b5c2	-0.14620116
210	0x3bf915db	0.0076014823
211	0x3e050ef8	0.12993991
212	0x3c7c85e6	0.015412783
213	0x3e35c433	0.17750625
214	0xbe1bd108	-0.15216458
215	0x3d97c913	0.07411399
216	0xbcd8e094	-0.026474275
217	0x3c4fff65	0.012695168
218	0xbea38127	-0.31934473
219	0x3e510897	0.20413433
220	0x3c81bcbe	0.01583707
221	0xbe004caf	-0.12529252
222	0x3eb1abfd	0.3470153
223	0x3d7cfe18	0.06176576
224	0x3ba2617d	0.004955469
225	0xbd8f2c6f	-0.06990897
226	0x3db56f06	0.08859067
227	0xbe6c4a0d	-0.23075123
228	0x3c4136c3	0.011792841
229	0xbe162a86	-0.14664659
230	0x3dd0b59d	0.1019089
231	0xbc952489	-0.018205898
232	0x3e2274e4	0.15864903
233	0x3e5f63c7	0.21815406
234	0xbe3e6312	-0.1859248
235	0xbd0c44cc	-0.034245297
236	0xbd2ba758	-0.04190764
237	0xbdc2a722	-0.09504534
238	0x3d22f746	0.0397866
239	0xbcce4da5	-0.025183508
240	0xbd6e1b18	-0.058131307
241	0x3e38c379	0.18043317
242	0x3c8914b3	0.016733503
243	0x3e31e692	0.17373112
244	0xbc41d8f1	-0.011831508
245	0xbddfaa45	-0.10921148
246	0xbbde5a0d	-0.0067856372
247	0x3e1f63b1	0.15565373
248	0xbd137dba	-0.036008574
249	0x3cf6ae94	0.030112542
250	0xbe0a5878	-0.1351031
251	0x3cd133f6	0.025537472
252	0x3dcad06c	0.099030346
253	0x3dfaca5f	0.122456305
254	0xbdfa3ef2	-0.12219037
255	0xbd115ea2	-0.03549064

e_conv3.bias f4 [16]
0	0x3e1feea6	0.15618381
1	0x3d81c591	0.06336511
2	0xbd9a4182	-0.07532026
3	0xbe74ddac	-0.23912686
4	0x3e0cc6a0	0.13747644
5	0x3d7c0c82	0.061535366
6	0xbf401491	-0.7503138
7	0xbe31be04	-0.17357641
8	0x3e06ebfe	0.13175961
9	0xbe31e6f9	-0.17373265
10	0xbf917484	-1.1363683
11	0x3f23f1fe	0.64041126
12	0x3e42a4f6	0.1900824
13	0x3da092a5	0.0784047
14	0x3d247957	0.04015478
15	0x3dc02e77	0.093838625

e_conv4.weight f4 [16, 16, 3, 3]
0	0x3e8943ee	0.2680964
1	0xbdf76ca3	-0.12081268
2	0x3d598eb9	0.053114627
3	0x3e3499a8	0.1763674
4	0xbe825769	-0.25457314
5	0xbf3d533a	-0.7395512
6	0xbe6752f8	-0.22590244
7	0xbd921a68	-0.07133943
8	0xbe9e6d9c	-0.30943
9	0xbf164590	-0.58699894
10	0x3d9e91f0	0.07742679
11	0x3e0a6634	0.1351555
12	0x3e6201ba	0.22070971
13	0x3ecf4e5e	0.40489477
14	0x3e59ccbc	0.21269506
15	0x3d803cf0	0.06261623
16	0xbea366b0	-0.31914282
17	0xbe3d0168	-0.18457568
18	0xbe031c98	-0.12803876
19	0xbddc7d01	-0.1076603
20	0xbd3dea01	-0.04636574
21	0xbe72a8ea	-0.23697248
22	0x3defc1ae	0.11706863
23	0xbda4e0cb	-0.08050688
24	0x3dd8d82b	0.10588106
25	0x3d583c9b	0.052792173
26	0xbd2dc0f9	-0.04242036
27	0xbe482f00	-0.19549179
28	0xbe658902	-0.22415546
29	0xbe6193ef	-0.22029088
30	0xbe1f43af	-0.15553163
31	0x3d58063c	0.05274032
32	0xbe8c13a6	-0.2735874
33	0xbdbddda6	-0.09270792
34	0x3d37c901	0.044869427
35	0xbeb441c7	-0.35206434
36	0x3e45470d	0.19265385
37	0xbe02354f	-0.12715648
38	0xbe6cf765	-0.23141249
39	0x3d18364d	0.03716116
40	0x3e9512f3	0.2911602
41	0x3b966f2e	0.0045908904
42	0xbe0bf3c6	-0.13667211
43	0x3db478b0	0.08812082
44	0xbb8bbe7e	-0.004264652
45	0x3c16d6a3	0.009206447
46	0x3ebe8b35	0.37215582
47	0x3e8f6955	0.2801005
48	0x3f045190	0.51686954
49	0xbe87f7d2	-0.2655626
50	0x3e4d9da1	0.20079662
51	0xbebb1957	-0.3654277
52	0xbcf78251	-0.030213507
53	0xbeb6e369	-0.35720375
54	0x3e143dd7	0.14476715
55	0x3deba714	0.11506477
56	0x3e4d22a8	0.20032752
57	0xbca00ad2	-0.01953641
58	0xbd9bd875	-0.07609645
59	0xbe1f43c7	-0.15553199
60	0x3e4954f7	0.19661318
61	0xbdbc0010	-0.091796994
62	0xbd20f85a	-0.039299347
63	0xbe4e94f4	-0.20174009
64	0x3cc6d0df	0.02426952
65	0x3eb37d6d	0.3505663
66	0x3d42f810	0.047599852
67	0xbd74fc35	-0.059810836
68	0x3e57a371	0.21058442
69	0xbd41e98f	-0.04734188
70	0xbde8471e	-0.113416895
71	0x3dfd34e5	0.123636045
72	0xbea30f70	-0.31847715
73	0x3e396071	0.18103196
74	0x3e4f9fa9	0.2027575
75	0x3e4af0f6	0.19818482
76	0xbdeb1f58	-0.11480588
77	0xbe00b055	-0.12567265
78	0x3e4f62ad	0.20252486
79	0xbc3b49d8	-0.01143118
80	0xbe1cc84c	-0.15310782
81	0xbe24f31b	-0.16108362
82	0xbe81eb03	-0.25374612
83	0xbede41dc	-0.43409622
84	0xbe81a155	-0.253184
85	0xbec89c52	-0.39181763
86	0xbf0c3a8c	-0.54776835
87	0xbead3511	-0.3382955
88	0xbecd45e1	-0.40092376
89	0xbed24b17	-0.41072914
90	0x3e1cd713	0.1531642
91	0x3e1e7e4a	0.15477863
92	0xbe0858a0	-0.13315058
93	0xbe173efb	-0.14770119
94	0x3e1849a1	0.14871837
95	0xbe233041	-0.15936376
96	0xbce6289f	-0.028095542
97	0x3cf6f2da	0.030145098
98	0xbedb5c1b	-0.42843708
99	0x3f1712d4	0.59013104
100	0x3d97e375	0.07416431
101	0xbd9782be	-0.07397984
102	0x3f05eafc	0.5231168
103	0xbe283876	-0.16427788
104	0xbed49c9f	-0.41525742
105	0xbc05241a	-0.008126283
106	0xbf06a3e8	-0.5259385
107	0xbebbb75a	-0.36663324
108	0x3dcd8d8a	0.10036762
109	0x3ee98e20	0.45616245
110	0x3ef04fd7	0.46935913
111	0x3d35a234	0.044344142
112	0xbea67134	-0.32508242
113	0x3e3a0541	0.18166067
114	0xbe46e4da	-0.19423237
115	0xbce8bac3	-0.028409367
116	0x3de8960a	0.11356743
117	0xbe4779e7	-0.19480096
118	0xbca56270	-0.02018854
119	0x3e424f29	0.1897551
120	0x3ebc9911	0.3683553
121	0xbe21360b	-0.15743272
122	0xbe9074e7	-0.2821419
123	0x3d46f687	0.04857495
124	0x3d6f0435	0.05835362
125	0x3e227c29	0.15867676
126	0x3e915312	0.2838369
127	0x3efadbd6	0.48995847
128	0x3dadd7bf	0.08488416
129	0xbda9251f	-0.082590334
130	0xbe33b35a	-0.17548886
131	0xbe1c4b5b	-0.15263121
132	0xbe28c3b6	-0.16480908
133	0x3d611313	0.05494983
134	0xbe5c8559	-0.21535243
135	0xbd6fbb73	-0.058528375
136	0x3f0e32e8	0.55546427
137	0x3e077c61	0.1323104
138	0x3f1a649f	0.60309786
139	0xbf4bd8cb	-0.79627675
140	0xb9ee4687	-0.00045447444
141	0xbec7da57	-0.39033768
142	0x3d19eb9c	0.03757821
143	0x3e488699	0.19582595
144	0xbe28beee	-0.16479084
145	0xbe83fd81	-0.25779346
146	0xbf217827	-0.6307396
147	0x3e46b776	0.19405922
148	0x3ca33a82	0.01992536
149	0xbe656eaf	-0.22405504
150	0x3db2dde8	0.087337315
151	0xbcb6f860	-0.022335231
152	0xbe4b8206	-0.19873819
153	0xbe64184a	-0.2227489
154	0xbe99c92f	-0.30036303
155	0xbedf6fc5	-0.4363996
156	0x3da2f972	0.07957734
157	0xbe84ad1a	-0.25913316
158	0xbd8ce911	-0.068803914
159	0x3f0a394a	0.53993666
160	0x3eab2e95	0.33433977
161	0x3ee013a6	0.4376499
162	0xbc4f61f0	-0.012657627
163	0x3de4ffa2	0.111815706
164	0x3e0bdbcd	0.13658066
165	0xbd94ed8e	-0.072718725
166	0x3d87808d	0.06616316
167	0x3e5500b5	0.20801051
168	0x3d923b11	0.07140172
169	0x3e083d0d	0.13304539
170	0x3d31c8d0	0.0434044
171	0xbe884629	-0.26616028
172	0xbdaa5290	-0.08316529
173	0xbe1c2a3f	-0.1525049
174	0x3c3a38a9	0.011366048
175	0x3d937718	0.0720045
176	0x3d3e8dea	0.04652206
177	0x3de34693	0.11097445
178	0x3eb2a253	0.3488947
179	0x3e6d84b3	0.23195152
180	0xbe96bfbc	-0.29443157
181	0xbf2b1fb2	-0.6684524
182	0xbf208848	-0.6270795
183	0x3df7a23d	0.12091491
184	0xbdc2b882	-0.09507848
185	0xbdf2f336	-0.11862795
186	0x3ee20e08	0.4415133
187	0x3e89f50b	0.26944765
188	0x3e722a42	0.23648933
189	0xbf195dec	-0.5990894
190	0xbe8d5e0f	-0.27610824
191	0xbe297c78	-0.16551387
192	0xbe7ffeac	-0.24999493
193	0x3d8e0f04	0.06936458
194	0x3e1d90c8	0.15387261
195	0xbdfc3875	-0.12315456
196	0x3edd1ef1	0.4318767
197	0x3f1df888	0.61707354
198	0x3cc14733	0.02359352
199	0x3b47bc60	0.003047727
200	0x3d4f392b	0.05059163
201	0x3d816bb8	0.06319374
202	0xbd435347	-0.04768684
203	0x3dbc9036	0.092071936
204	0x3daeddf9	0.08538432
205	0x3de576da	0.1120431
206	0x3da14855	0.07875124
207	0xbe9da291	-0.3078809
208	0xbe5accc3	-0.21367173
209	0xbe91d025	-0.28479114
210	0x3e11174f	0.14169048
211	0x3e9727dc	0.29522598
212	0x3e5bfca2	0.2148309
213	0x3f1d8bf6	0.6154169
214	0x3f16598b	0.5873038
215	0x3e2370ad	0.15960951
216	0x3ea1e42e	0.316194
217	0x3c81f15d	0.015862161
218	0x3e18b13d	0.14911361
219	0xbe745ec5	-0.23864277
220	0x3e069bb7	0.13145338
221	0x3d872a7c	0.065999
222	0xbf0d1d05	-0.55122405
223	0xbe54168f	-0.2071173
224	0xbc740ce3	-0.014895651
225	0xbe947563	-0.2899581
226	0xbcd417c3	-0.025890237
227	0x3e0b2d86	0.13591585
228	0xbd893a86	-0.067006156
229	0x3e402ebc	0.18767828
230	0x3e9bf574	0.30460703
231	0x3de86fe5	0.11349467
232	0x3ee57f4d	0.44823685
233	0x3f00741e	0.5017718
234	0xbef3ce18	-0.47618175
235	0xbe51f2c4	-0.20502764
236	0xbe5aa92c	-0.21353596
237	0xbf6d48cc	-0.92689204
238	0xbf6d9052	-0.9279834
239	0xbf5a62b0	-0.85306835
240	0xbe074ce1	-0.1321292
241	0x3c084e57	0.008319459
242	0x3ecbb6ac	0.39787805
243	0xbf8a5130	-1.0806026
244	0xbec11f78	-0.3771932
245	0xbe1055da	-0.1409525
246	0xbf72c028	-0.9482446
247	0xbd5e00fd	-0.05420016
248	0x3e54765a	0.20748273
249	0xbf042a2f	-0.5162687
250	0x3f13598c	0.5755851
251	0x3f1a6899	0.60315853
252	0x3d67139c	0.056415185
253	0xbc39075f	-0.011293261
254	0xbe2f21ed	-0.17102785
255	0x3e582311	0.21107127

e_conv4.bias f4 [16]
0	0xbea2d94b	-0.31806406
1	0xbe9c9fb0	-0.30590582
2	0x3e3d4389	0.18482794
3	0x3d5d4675	0.05402227
4	0xbdb03c16	-0.086052105
5	0xbdfdecd1	-0.12398685
6	0xbdf840d8	-0.12121743
7	0xbda5781c	-0.0807955
8	0xbd1953c9	-0.03743342
9	0xbe2e591f	-0.17026184
10	0xbe05e04b	-0.13073842
11	0xbf6aabc4	-0.91668344
12	0x3d8e67ef	0.069534175
13	0xbdd8648f	-0.10566055
14	0xbdd980ac	-0.10620245
15	0xbdf301c3	-0.118655704

e_conv5.weight f4 [16, 32, 3, 3]
0	0x3e7312eb	0.23737685
1	0x3de87b54	0.11351648
2	0x3d458a6b	0.04822771
3	0xbd00ee8f	-0.031477507
4	0xbcd37ba9	-0.025815802
5	0xbd69a879	-0.057045434
6	0xbeac58f7	-0.33661625
7	0xbe0a2562	-0.13490823
8	0xbe2be63c	-0.16787046
9	0x3dc0e53e	0.094187245
10	0xbec0ca76	-0.37654465
11	0x3e060413	0.13087492
12	0x3c55a3dc	0.013039555
13	0x3efb66cd	0.49101868
14	0x3d8e23b7	0.06940406
15	0x3e89a840	0.26886177
16	0x3e427175	0.18988593
17	0x3e06658d	0.13124676
18	0x3e442d28	0.1915785
19	0x3e392ed2	0.18084267
20	0x3c413048	0.011791296
21	0xbf188a10	-0.59585667
22	0xbf094023	-0.5361349
23	0x3d09d467	0.03364983
24	0xbe4aa571	-0.19789673
25	0x3e29e4fa	0.16591254
26	0x3e044691	0.12917544
27	0xbe7124f1	-0.23549248
28	0xbf0042e1	-0.5010205
29	0x3d3e8666	0.04651489
30	0xbda73511	-0.081644185
31	0x3e7cdaec	0.24692887
32	0x3dfcbfc4	0.12341264
33	0x3cb0c4c8	0.021578208
34	0x3cf8d467	0.030374719
35	0x3ed2aaea	0.41146022
36	0xbd9de722	-0.07710101
37	0x3e2775b9	0.16353501
38	0x3e0256cd	0.12728424
39	0x3e1cdb8e	0.15318128
40	0x3e124823	0.1428533
41	0x3d963c08	0.07335669
42	0xbdc6dbf1	-0.09709919
43	0xbe1373c1	-0.14399625
44	0x3e1170bd	0.14203162
45	0xbd0c6a89	-0.034281287
46	0x3df9b1f1	0.12192143
47	0x3e692445	0.22767742
48	0xbd32e575	-0.04367586
49	0xbd69a99a	-0.05704651
50	0xbcbd4773	-0.023105359
51	0x3e3fc28e	0.1872656
52	0xbc180dc5	-0.009280627
53	0xbcde594c	-0.02714219
54	0xbd4667c6	-0.04843881
55	0xbcd3e59e	-0.025866326
56	0x3de160a1	0.110047586
57	0x3da18b69	0.078879185
58	0xbe253106	-0.16131982
59	0xbc5bf615	-0.01342537
60	0xbe82b0d0	-0.25525522
61	0xbd9a38a7	-0.07530337
62	0xbd64d87c	-0.055870518
63	0xbe139d3a	-0.14415446
64	0xbddd97ef	-0.10819995
65	0x3e1f8a4f	0.15580104
66	0x3d55d0d2	0.0522011
67	0x3e12d82a	0.14340273
68	0xbd155bdc	-0.036464557
69	0xbe4a5591	-0.19759203
70	0x3e9ea691	0.30986455
71	0xbe2dc255	-0.16968663
72	0x3c5d7dbb	0.013518746
73	0x3e150533	0.14552765
74	0x3db915ac	0.09037337
75	0x3dcc0f92	0.09963907
76	0x3c9dd6ce	0.019267466
77	0xbc309650	-0.010778025
78	0xbc8e1b95	-0.017347137
79	0x3e04f43b	0.12983792
80	0x3e228c0b	0.15873735
81	0x3e86dad8	0.2633884
82	0x3df1de4d	0.11809979
83	0xbe09ba1d	-0.13449903
84	0x3e538483	0.20656018
85	0x3d6e700a	0.058212318
86	0xbd778956	-0.060433708
87	0x3ba0ab3c	0.004903225
88	0x3dc4f2c8	0.09616619
89	0x3d961bf7	0.073295526
90	0xbe6cf034	-0.23138505
91	0xbead7f21	-0.33886054
92	0x3dd570ca	0.104219034
93	0x3ecec072	0.403812
94	0x3f11838f	0.5684137
95	0x3d6e3d9f	0.058164235
96	0xbdd468d4	-0.10371557
97	0xbd6a52d1	-0.057207886
98	0x3e243860	0.1603713
99	0x3cd6678c	0.026172422
100	0xbdfa4b71	-0.122214206
101	0xbe3bb6c4	-0.18331438
102	0x3e6e9d8c	0.23302287
103	0xbd8601fd	-0.06543348
104	0xbe452c34	-0.19255143
105	0x3ee6f256	0.45106763
106	0x3e7fc619	0.24977912
107	0x3e11b529	0.14229263
108	0xbd2f03fb	-0.042728405
109	0xbd5fa99e	-0.05460512
110	0x3e647b38	0.22312629
111	0x3e87e272	0.26539952
112	0xbe51ac75	-0.20475943
113	0x3e138c58	0.14409006
114	0xbd97d3b8	-0.07413429
115	0x3d7cf500	0.061757088
116	0x3e1b743b	0.15181057
117	0xbd9bd834	-0.07609597
118	0x3e5163d5	0.20448239
119	0x3e222856	0.158357
120	0x3e0fd8a1	0.14047481
121	0x3c3da0b3	0.011573958
122	0xbe58eaca	-0.21183315
123	0xbe21592e	-0.15756676
124	0xbd924b1f	-0.071432345
125	0x3e28d7e0	0.164886
126	0x3e4be0bf	0.19909953
127	0xbe474311	-0.19459178
128	0xbe455e15	-0.1927417
129	0xbe32bea9	-0.17455544
130	0x3dcef8f2	0.10106076
131	0xbd13ad4a	-0.036053933
132	0x3d7a3010	0.061080992
133	0x3e1af041	0.15130712
134	0xbd922b55	-0.07137171
135	0x3daaa50c	0.083322614
136	0xbda886b0	-0.082288146
137	0x3e72153c	0.23640913
138	0x3e789d89	0.24278845
139	0xbd449461	-0.047993068
140	0x3e497bc6	0.19676122
141	0x3e261e7e	0.1622257
142	0xbd682793	-0.056678366
143	0xbe102a05	-0.14078529
144	0x3eadf092	0.33972603
145	0x3e313153	0.17303972
146	0x3de945da	0.11390276
147	0xbd5424ed	-0.051793028
148	0x3d6f2eda	0.05839429
149	0x3de175ef	0.11008822
150	0x3d911c65	0.07085494
151	0x3d4630c7	0.04838636
152	0x3ebe5de8	0.3718102
153	0xbe7e889a	-0.24856797
154	0xbc2ab7b3	-0.010419774
155	0x3e7ff9c9	0.24997629
156	0xbdbc4768	-0.09193307
157	0xbe3e90bf	-0.18609904
158	0x3e743903	0.23849873
159	0xbc2b3327	-0.010449207
160	0x3dfd76bf	0.12376165
161	0x3d4e33bb	0.050342303
162	0xbdb6f519	-0.089334674
163	0xbe92db54	-0.2868296
164	0xbda82eea	-0.08212073
165	0x3e61b3c0	0.22041225
166	0xbd949b80	-0.07256222
167	0xbdcca965	-0.09993247
168	0x3d4d581d	0.05013286
169	0xbe269bc3	-0.16270356
170	0xbe44b173	-0.19208317
171	0x3e885f21	0.26635078
172	0xbdc79cd1	-0.09746707
173	0xbebac1fd	-0.36476126
174	0x3dc1724e	0.0944563
175	0xbe1f7600	-0.15572357
176	0xbc8858c7	-0.016643895
177	0x3da128e9	0.07869131
178	0xbdb79657	-0.08964222
179	0x3db8d344	0.09024671
180	0xbe53d0e8	-0.2068516
181	0xbecba6dc	-0.3977574
182	0xbf09ff3f	-0.539051
183	0xbd7d4554	-0.061833695
184	0xbe67ea1d	-0.22647901
185	0xbea7a9e8	-0.32746816
186	0x3e63365c	0.22188705
187	0x3d85d4d1	0.06534732
188	0xbe4dd290	-0.20099854
189	0xbe8d4ef8	-0.2759931
190	0xba0fea44	-0.00054899254
191	0x3d5dbfb1	0.05413789
192	0xbf166605	-0.5874942
193	0x3dffa526	0.124826714
194	0x3eb62304	0.3557359
195	0xbbc6b612	-0.006064185
196	0xbdbff70a	-0.09373291
197	0xbe3c6c7b	-0.18400757
198	0x3db1f6df	0.08689665
199	0xbd47fef5	-0.04882713
200	0xbe208fbb	-0.15679829
201	0x3e50124f	0.20319484
202	0xbe133517	-0.14375721
203	0x3da9229a	0.08258553
204	0x3e81f77e	0.25384134
205	0xbe1b7aec	-0.1518361
206	0x3c50d377	0.01274573
207	0x3bcf63d9	0.0063290414
208	0x3de20839	0.110367246
209	0x3e6a2b45	0.22868069
210	0xbd10c7b2	-0.035346694
211	0xbe0221ec	-0.12708253
212	0x3e13dff7	0.14440905
213	0xbecec0a4	-0.40381348
214	0x3d08d98b	0.03341059
215	0x3dbe2b52	0.092856064
216	0xbd2ed77d	-0.042685974
217	0xbdfa9d8d	-0.12237082
218	0x3e169b3b	0.14707653
219	0xbdad2e9c	-0.08456156
220	0xbe33b7a4	-0.17550522
221	0x3d8a93fd	0.06766508
222	0xbe272c9e	-0.16325614
223	0x3cc746ba	0.024325717
224	0x3dd3aede	0.10336088
225	0x3f54216c	0.828635
226	0x3f31f27a	0.69510615
227	0x3f48971d	0.7835558
228	0x3f53aea3	0.8268835
229	0x3f3c0085	0.7343829
230	0x3f331741	0.6995736
231	0x3f484160	0.78224754
232	0x3f1e55d8	0.6184974
233	0x3f2de569	0.6792818
234	0x3f153a01	0.5829163
235	0x3ec4081b	0.38287434
236	0x3e4a49b9	0.19754685
237	0x3f117c5a	0.5683037
238	0x3ef4266f	0.47685573
239	0x3e8de87c	0.27716434
240	0x3ebf305e	0.3734159
241	0x3de73cb0	0.11290872
242	0xbe1bd923	-0.1521955
243	0xbee7ecd1	-0.45297864
244	0xbf136b81	-0.5758591
245	0xbf32211d	-0.69581777
246	0xbf034a99	-0.512857
247	0xbf150a5f	-0.5821895
248	0xbf2aef63	-0.66771525
249	0xbf13156d	-0.5745457
250	0xbf2280c8	-0.63477755
251	0xbf1af446	-0.6052898
252	0xbe944ede	-0.2896642
253	0xbea320ca	-0.31860954
254	0xbe9e6419	-0.30935743
255	0xbeefdb44	-0.46846974

e_conv5.bias f4 [16]
0	0x3d651204	0.055925384
1	0x3e7ce74d	0.24697609
2	0x3d8ebce9	0.069696255
3	0xbd76cb27	-0.060252335
4	0x3d961187	0.07327562
5	0x3d2bf9c5	0.041986246
6	0x3e9b5d88	0.30344796
7	0xbe969bef	-0.29415843
8	0x3e488df4	0.19585401
9	0xbfa7dcc5	-1.3114249
10	0xbdb9034c	-0.09033832
11	0xbdbe75f1	-0.09299839
12	0xbe90707c	-0.2821082
13	0x3d66e083	0.056366455
14	0x3e800085	0.25000396
15	0x3dec79a8	0.115466416

e_conv6.weight f4 [16, 32, 3, 3]
0	0x3e1b4b21	0.15165378
1	0xbe1b740a	-0.15180984
2	0xbeaca227	-0.33717462
3	0x3e0afcfa	0.13573065
4	0xbf24fa4f	-0.6444444
5	0xbf4ce7b9	-0.8004108
6	0xbf24d38c	-0.64385295
7	0xbe2bfaf5	-0.16794951
8	0xbdc46213	-0.09589019
9	0xbd82b4ca	-0.06382139
10	0xbd508069	-0.05090371
11	0xbe6837f4	-0.22677594
12	0xbe60c2da	-0.2194933
13	0x3dcaf302	0.09909631
14	0x3ddf0722	0.10890032
15	0xbe79ef69	-0.24407734
16	0x3e149b42	0.14512351
17	0x3e510f57	0.20416008
18	0xbe0a0fec	-0.13482636
19	0xbcda25de	-0.026629385
20	0x3df9e5f9	0.12202067
21	0x3d980fe4	0.07424906
22	0x3e08da68	0.13364565
23	0x3e1c8a02	0.15287021
24	0xbcdc8d9c	-0.026922993
25	0xbe383036	-0.17987141
26	0xbeab83c7	-0.33498976
27	0x3d0a734b	0.03380136
28	0x3da3aa72	0.07991494
29	0xbc2e7304	-0.010647539
30	0xbf07d2f0	-0.5305624
31	0xbe8d38bf	-0.27582356
32	0xbd7667a3	-0.06015743
33	0xbe963368	-0.29336095
34	0xbe8cde6c	-0.27513444
35	0x3ead3238	0.33827376
36	0x3e98c86d	0.29840413
37	0xbda87397	-0.08225172
38	0xbe73ba36	-0.23801503
39	0x3d89b544	0.06724027
40	0xbe3334fc	-0.1750068
41	0xbe6abf87	-0.22924624
42	0xbe589ea9	-0.21154274
43	0xbe859280	-0.26088333
44	0x3d8beedc	0.06832668
45	0x3c8a07ca	0.016849417
46	0xbd9d3135	-0.07675401
47	0xbe080683	-0.13283734
48	0x3d83d80d	0.06437693
49	0x3da5f940	0.08104181
50	0xbdc22098	-0.09478873
51	0xbe9536fb	-0.2914351
52	0x3e330b1b	0.17484705
53	0xbb21f4e7	-0.0024712624
54	0xbe138625	-0.14406641
55	0xbe328939	-0.17435159
56	0xbd9204bf	-0.071298115
57	0xbdbf3c06	-0.093376204
58	0xbd8c8f36	-0.06863253
59	0x3d968ece	0.073514566
60	0xbeb4c898	-0.3530929
61	0xbe4ef8b2	-0.20212057
62	0xbc1a8d0f	-0.009433045
63	0x3c438e48	0.011935778
64	0x3ca17b3f	0.019712089
65	0x3e1134d1	0.14180304
66	0x3e73c29b	0.23804705
67	0x3e089440	0.13337803
68	0x3dc62adc	0.096761435
69	0xbbd0919f	-0.0063650156
70	0x3e563636	0.20919117
71	0x3e37f230	0.17963481
72	0xbcaf4ae6	-0.021398019
73	0xbd3649d8	-0.044504017
74	0xbcd7a1d5	-0.026322285
75	0x3deef469	0.11667711
76	0xbd2c1347	-0.04201057
77	0xbda490e9	-0.08035452
78	0x3d05cfa2	0.032668717
79	0xbdc4920a	-0.09598167
80	0xbdc03767	-0.09385567
81	0xbf00c66f	-0.50302786
82	0xbf03e482	-0.5152055
83	0xbe8dc756	-0.27691144
84	0xbea60847	-0.3242819
85	0xbebb8595	-0.36625353
86	0xbdd8626e	-0.10565649
87	0xbe051d68	-0.12999499
88	0xbe254eb3	-0.16143303
89	0xbd906059	-0.07049627
90	0xbcb74544	-0.022371896
91	0xbdb49754	-0.08817926
92	0xbc5934f4	-0.013257254
93	0x3d2adac7	0.04171255
94	0x3d6bd1b8	0.05757305
95	0xbdf8bcae	-0.12145363
96	0x3e3a88fe	0.18216321
97	0x3d955de3	0.07293298
98	0xbe16f8e9	-0.14743389
99	0xbd337ee4	-0.043822184
100	0x3e960fa7	0.29308817
101	0x3d86f512	0.06589712
102	0x3e296d1a	0.16545525
103	0x3d47b7be	0.048759215
104	0xbde2f239	-0.110813566
105	0x3e1aba75	0.1511019
106	0xbc2f15f9	-0.010686391
107	0x3ea81770	0.3283038
108	0xbe57e0fc	-0.21081918
109	0x3df2149a	0.11820336
110	0xbf1d03bd	-0.6133383
111	0xbf46f669	-0.7771974
112	0xbe280668	-0.16408694
113	0xbed27383	-0.41103753
114	0x3e040502	0.12892535
115	0x3e0adf92	0.13561848
116	0xbe94dec6	-0.29076213
117	0xbe8982e2	-0.26857668
118	0xbd64d491	-0.05586678
119	0x3c962345	0.018327365
120	0xbda7f4ff	-0.08201026
121	0x3c33862e	0.010957284
122	0x3dca6e36	0.09884302
123	0xbd920b86	-0.07131104
124	0xbe9153e6	-0.28384322
125	0x3ca2617e	0.019821879
126	0xbe41680a	-0.18887344
127	0xbd824005	-0.06359867
128	0xbd9e9860	-0.07743907
129	0x3c1ce670	0.009576425
130	0xbdc477ca	-0.095931605
131	0xbe1d75ef	-0.1537702
132	0x3b1c2be8	0.002382988
133	0x3bfd9bdb	0.0077395267
134	0xbd6eb556	-0.058278404
135	0x3d87797a	0.06614967
136	0x3d43dca6	0.04781785
137	0xbe1ba587	-0.15199862
138	0xbd08d91a	-0.03341017
139	0x3d702b4a	0.058635034
140	0x3dc4b824	0.096054345
141	0xbe8f5813	-0.27996883
142	0xbbdc6647	-0.0067260596
143	0x3bb235dc	0.0054385494
144	0xbdab34e7	-0.083597
145	0xbeab9a6c	-0.33516252
146	0xbebf3409	-0.37344387
147	0x3ddb9856	0.10722415
148	0xbe70d46d	-0.23518534
149	0xbece720c	-0.40321386
150	0x3d55fa95	0.052240927
151	0xbdad0582	-0.08448316
152	0xbe7e0b08	-0.24808896
153	0x37719db4	1.44014375e-05
154	0xbca8c58e	-0.020602014
155	0xbd9ff825	-0.07811002
156	0x3e2a43a8	0.16627371
157	0x3d2d71f6	0.04234501
158	0xbc993486	-0.018701803
159	0x3ddf6fa9	0.10909969
160	0x3d407abd	0.046992052
161	0xbdddcc34	-0.10829964
162	0x3eb50c31	0.35360864
163	0x3ec29fc7	0.38012525
164	0x3edb9b71	0.4289203
165	0x3eca2754	0.3948313
166	0x3eb9ab66	0.3626358
167	0x3ea7f19f	0.3280153
168	0x3ed1e25d	0.40993014
169	0x3ea6f47c	0.32608402
170	0x3eb7d6c1	0.35906032
171	0xbe1f9e92	-0.15587834
172	0xbde5dc7e	-0.11223696
173	0xbe36b4cd	-0.17842408
174	0xbe465eee	-0.1937215
175	0xbda68bc5	-0.08132128
176	0xbd5c8396	-0.053836428
177	0xbe1a036a	-0.15040365
178	0xbe5bf524	-0.21480232
179	0xbde57f12	-0.11205877
180	0xbc88559b	-0.016642382
181	0xbd16f3f8	-0.03685376
182	0xbe05feee	-0.13085529
183	0x3d42752f	0.047475036
184	0x3d60c18d	0.054872084
185	0x3db04166	0.08606224
186	0xbd025a70	-0.03182453
187	0x3e05a667	0.13051759
188	0x3dde8db2	0.1086687
189	0xbd05bdc3	-0.032651674
190	0x3c0664e7	0.008202768
191	0x3e11ee25	0.14251001
192	0xbda25930	-0.079271674
193	0x3e346d1e	0.1761975
194	0x3e5ea2ee	0.2174184
195	0xbdbe99d5	-0.09306685
196	0x3e03f7af	0.12887453
197	0x3e5721da	0.21009007
198	0x3e133004	0.14373785
199	0x3e72861b	0.2368397
200	0x3e844995	0.2583739
201	0x3e94cd87	0.29063055
202	0x3e7a1a84	0.24424177
203	0x3e606ab7	0.21915708
204	0x3f1d3793	0.61412925
205	0x3f12fefa	0.57420313
206	0x3f15e998	0.5855956
207	0x3ed74dab	0.42051443
208	0x3f14d8fc	0.5814359
209	0x3f3880b8	0.7207141
210	0x3ebc0892	0.3672529
211	0x3f1eb27d	0.619911
212	0x3f0167cc	0.50549006
213	0x3e143de2	0.14476731
214	0xbf0c40f9	-0.5478664
215	0xbf62015d	-0.8828333
216	0x3e6de7ad	0.23232909
217	0x3e8b8db1	0.2725654
218	0x3ea7c1bf	0.32765004
219	0xbe5ed18c	-0.21759623
220	0xbe8f4eac	-0.2798971
221	0xbe2dd6a7	-0.16976415
222	0xbec70478	-0.38870597
223	0xbe4d5912	-0.20053509
224	0x3e306ca0	0.17228937
225	0x3e4b3e20	0.19847918
226	0xbe8e4291	-0.2778516
227	0xbea13cfa	-0.31491834
228	0x3e515217	0.20441471
229	0x3da2f089	0.07956035
230	0xbe9f0b00	-0.3106308
231	0x3ed2fdcd	0.4120926
232	0x3f554b3c	0.83317924
233	0x3e958747	0.2920477
234	0xbe130f8f	-0.14361404
235	0xbda06334	-0.078314215
236	0xbe14ff15	-0.14550431
237	0xbe12b50a	-0.14326873
238	0xbd92e25f	-0.07172083
239	0xbcae4ee9	-0.021277862
240	0xbdbcd2b4	-0.09219876
241	0xbe74608d	-0.23864956
242	0xbe9b2079	-0.30298212
243	0xbeaa20e5	-0.33228222
244	0xbe95726d	-0.29188862
245	0xbc732887	-0.014841205
246	0xbd3d07e7	-0.046150114
247	0xbe2b443c	-0.16725248
248	0xbefa61c5	-0.48902717
249	0x3e7bdbce	0.24595568
250	0x3e4e349b	0.20137255
251	0xbeb578fe	-0.35443872
252	0x3aa75ec3	0.001276933
253	0xbd8f670e	-0.07002078
254	0xbd1a48b3	-0.037666988
255	0xbdafb280	-0.08578968

e_conv6.bias f4 [16]
0	0xbee99efb	-0.45629105
1	0xbd3fe575	-0.046849687
2	0x3ed120ed	0.40845433
3	0x3e5e13ea	0.21687284
4	0x3ce28acb	0.027654072
5	0x3e6cab5e	0.23112246
6	0x3e015184	0.12628752
7	0x3f3dc1c5	0.74123794
8	0xbd35a760	-0.044349074
9	0xbe8970ae	-0.2684378
10	0xbeeb566b	-0.4596437
11	0x3e23d252	0.159982
12	0x3e0a4465	0.13502653
13	0xbe9ca934	-0.30597842
14	0x3e00f291	0.12592532
15	0x3e7ff456	0.2499555

e_conv7.weight f4 [16, 32, 3, 3]
0	0xbca387b6	-0.019962173
1	0xbdb10c0b	-0.08644875
2	0xbd7e65a6	-0.06210866
3	0x3d910a45	0.07082037
4	0xbd08164b	-0.033224385
5	0xbccfc0bb	-0.025360456
6	0xbd683aab	-0.056696575
7	0x3c3b1bf7	0.011420242
8	0xbba5bbcf	-0.005057789
9	0x3da8d26c	0.0824326
10	0xbcbf5017	-0.02335362
11	0x3e4229bb	0.18961231
12	0xbc0cab41	-0.008585752
13	0xbd8c3fa1	-0.06848074
14	0x3db83c3d	0.089958645
15	0xbd9c0eb2	-0.076199904
16	0xbe07ebb3	-0.13273506
17	0xb91c1768	-0.00014886039
18	0xbddddfa0	-0.10833669
19	0x3baf9a2b	0.0053589544
20	0x3d7dd6d9	0.061972473
21	0xbe86edc0	-0.26353264
22	0xbd6ffe68	-0.05859223
23	0x3d409280	0.047014713
24	0xbeb56784	-0.3543054
25	0xbe174551	-0.14772536
26	0x3dbaa69d	0.0911381
27	0xb9390205	-0.00017643727
28	0x3e1e994f	0.1548817
29	0x3dd77695	0.105206646
30	0x3db7e23e	0.08978699
31	0x3da46ac3	0.08028176
32	0x3db42996	0.087969944
33	0xbec04242	-0.3755055
34	0xbe1e8d17	-0.15483509
35	0xbe4865a0	-0.19570017
36	0xbdb50904	-0.0883961
37	0xbd9b8591	-0.07593835
38	0x3c87de7b	0.01658558
39	0x3bd2d50d	0.006434089
40	0x3dca55d8	0.09879655
41	0xbe3f0b9c	-0.18656772
42	0x3ba80d46	0.0051285354
43	0x3c67338d	0.014111412
44	0x3e3be6ad	0.18349715
45	0x3e1bfd3e	0.15233323
46	0x3e079d0e	0.13243505
47	0xbda9d23e	-0.08292054
48	0x3cc0d303	0.023538118
49	0xbe397a0b	-0.18112962
50	0x3c186b45	0.009302919
51	0x3e215c7b	0.15757935
52	0x3e2568ad	0.16153212
53	0x3e3abbb1	0.18235661
54	0x3d021b46	0.03176429
55	0x3e1b1132	0.15143278
56	0xbe2abd6d	-0.16673823
57	0x3d3abb16	0.045588575
58	0x3e2453f2	0.16047648
59	0x3db118ed	0.08647332
60	0xbcc6f149	-0.024284976
61	0xbd1af369	-0.03782979
62	0x3dcf2f4f	0.10116445
63	0xbd06e1e6	-0.032930277
64	0xbd99c987	-0.075091414
65	0xbd8c830e	-0.06860934
66	0xbd0bcc66	-0.034130476
67	0xbd5e13f2	-0.05421824
68	0xbddd6d6f	-0.108118884
69	0xbc065ffb	-0.008201594
70	0xbd5a9edb	-0.053374153
71	0xbda96a93	-0.082722805
72	0xbe9f76aa	-0.3114522
73	0xbddf1a4c	-0.108936876
74	0xbe0c7ffa	-0.13720694
75	0xbd645ec0	-0.055754423
76	0x3e486a24	0.1957174
77	0x3d89b216	0.0672342
78	0xbe3eac46	-0.18620405
79	0x3d9e532f	0.0773071
80	0xbdea1a32	-0.114307776
81	0x3f26d62e	0.6517056
82	0x3f10f0b0	0.5661726
83	0x3e2e30df	0.1701083
84	0xbdaf9081	-0.08572484
85	0xbdf596cd	-0.119916536
86	0x3db7014e	0.08935796
87	0x3e6855a6	0.22688922
88	0x3c4ed341	0.012623609
89	0x3d2754e8	0.040852457
90	0xbea697a3	-0.32537565
91	0xbe27d0de	-0.1638827
92	0xbec49c95	-0.38400713
93	0xbdc6413d	-0.09680412
94	0x3e0a2f67	0.13494645
95	0xbc8eb75f	-0.017421423
96	0xbf1075e6	-0.564299
97	0xbe99a193	-0.30006084
98	0xbeae441c	-0.34036338
99	0xbe3d887c	-0.18509096
100	0xbd416ff5	-0.04722591
101	0x3ea08d8c	0.31357992
102	0xbec75ff8	-0.38940406
103	0xbe27dc50	-0.16392636
104	0x3e22e6f9	0.15908422
105	0xbf26b12e	-0.65114105
106	0xbe89f45d	-0.26944247
107	0x3e0913af	0.13386415
108	0x3c5cb631	0.013471172
109	0x3b6e1db8	0.0036333632
110	0x3da43385	0.08017639
111	0xbbb88442	-0.0056310007
112	0x3c6d0c1c	0.014468219
113	0x3d51351b	0.051076036
114	0xbdfeff5b	-0.12451049
115	0x3cff2a2c	0.031148039
116	0x3d9be07b	0.076111756
117	0xbf156b0d	-0.5836647
118	0xbea51462	-0.32242113
119	0xbeb12677	-0.3459966
120	0xbef761fc	-0.48316944
121	0xbe84c645	-0.25932518
122	0xbec313c1	-0.3810101
123	0xbf42ddb7	-0.7611956
124	0xbef2ecaa	-0.47446185
125	0xbeec8b77	-0.46200153
126	0xbf160af0	-0.5861044
127	0xbee2a849	-0.44269016
128	0xbe84129b	-0.25795445
129	0xbe2329aa	-0.15933862
130	0xbdc5cf16	-0.09658639
131	0x3dbf788b	0.093491636
132	0x3e80cced	0.25156346
133	0x3ed97bee	0.42477363
134	0x3f10fe1a	0.5663773
135	0xbb46af1a	-0.003031677
136	0xbe5bea48	-0.2147609
137	0xbe12d746	-0.14339933
138	0x3e1b23fc	0.15150446
139	0xbd16f202	-0.03685189
140	0xbe05e25a	-0.13074628
141	0x3e3d20e3	0.18469577
142	0xbcab0285	-0.020875225
143	0xbdde9e58	-0.108700454
144	0xbf035d77	-0.5131449
145	0xbe84044e	-0.25784534
146	0xbe491aac	-0.19639081
147	0xbed042ca	-0.40675956
148	0xbe1bd31f	-0.15217255
149	0xbe47b8a3	-0.19504027
150	0xbec963dc	-0.39334
151	0xbe13b135	-0.14423068
152	0xbe7e2236	-0.24817738
153	0x3c0e2ff3	0.008678424
154	0x3e3e9460	0.18611288
155	0x3e94ea7b	0.29085144
156	0xbdd79ffa	-0.1052856
157	0xbe3def9b	-0.18548433
158	0x3e3af261	0.18256523
159	0xbe34f850	-0.17672849
160	0xbe180fe4	-0.14849812
161	0x3dfa73a6	0.122290894
162	0x3e21367b	0.15743439
163	0xbd3d1f71	-0.046172563
164	0x3d86a0a8	0.065736115
165	0x3d73a587	0.05948403
166	0xbe4503e2	-0.19239762
167	0x3d6bc891	0.057564322
168	0x3e36e775	0.17861731
169	0xbd8722ef	-0.0659846
170	0x3def40cd	0.11682282
171	0x3de06f09	0.10958678
172	0x3d232d6c	0.03983824
173	0xbcecbaf5	-0.028897742
174	0x3ce03126	0.027367186
175	0xbc00da22	-0.007864507
176	0xbc847140	-0.016167283
177	0xbd1f6a9d	-0.038920034
178	0x3d1c28bd	0.03812479
179	0x3dbdc644	0.09266332
180	0x3d3b59f2	0.045740075
181	0x3ca96e8f	0.020682601
182	0x3d2b6b9b	0.041850667
183	0xbc8010f6	-0.015633088
184	0xbdb29d5d	-0.08721421
185	0xbce186b7	-0.027530057
186	0x3a0471cf	0.0005052359
187	0xbd800a28	-0.06251937
188	0xbcb2088b	-0.02173259
189	0x3c3dd5b3	0.011586594
190	0x39bfc8da	0.00036580005
191	0xbd98175e	-0.07426332
192	0x3c10c4c3	0.008835974
193	0x3c7049bd	0.014666018
194	0xbcb7a350	-0.02241674
195	0x3d6ec6d8	0.0582951
196	0x3d35154e	0.04420977
197	0x3d87bafb	0.066274606
198	0x3b4c36b6	0.003116054
199	0xbd0f5c5c	-0.03500019
200	0x3d8363fa	0.064155534
201	0x3ce8ec37	0.028432949
202	0xbd9a360a	-0.075298384
203	0xbda7572c	-0.081709236
204	0x3d95cc83	0.07314398
205	0xbd455bb0	-0.048183143
206	0xbd2f2b75	-0.042766053
207	0x3e423e3f	0.18969058
208	0x3da12047	0.078674845
209	0x3e4703d4	0.19435054
210	0x3e30ad56	0.17253622
211	0x3d0ff67c	0.035147175
212	0x3e168aef	0.14701436
213	0x3e05d00c	0.13067645
214	0x3de3e0bb	0.11126848
215	0x3e045fdf	0.12927197
216	0x3d5fb0b5	0.05461188
217	0x3e221f03	0.15832143
218	0x3e16f3e3	0.14741473
219	0x3d9ce8a4	0.0766156
220	0xbd265dd4	-0.040616825
221	0x3db6a91b	0.08918973
222	0x3d8b7af2	0.06810559
223	0x3d8df2b2	0.06931056
224	0x3d4bf519	0.04979429
225	0x3d2ce0d3	0.042206597
226	0x3e072b30	0.13200068
227	0x3e469096	0.19391093
228	0x3e142915	0.14468797
229	0xb9e23499	-0.00043145267
230	0x3d3fdc9e	0.046841256
231	0xbd8b8e6e	-0.06814276
232	0xbdbb2c79	-0.09139342
233	0xbd58c873	-0.05292554
234	0xbcf12a6e	-0.029439177
235	0xbc86c58b	-0.016451618
236	0x3c1dd3bf	0.009633004
237	0x3cbf4a8d	0.023350978
238	0x3cb1c766	0.021701526
239	0x3d2c08b3	0.042000484
240	0x3c89f162	0.016838733
241	0xbdbb903f	-0.09158372
242	0xbd12b342	-0.035815485
243	0x3e99b91e	0.30024046
244	0x3e41f288	0.18940175
245	0x3e3928fa	0.18082038
246	0x3ea1ddd3	0.3161455
247	0x3e3d84de	0.18507716
248	0x3e635e6a	0.22203985
249	0x3e9ef831	0.3104873
250	0x3e889d36	0.26682442
251	0x3e2730f5	0.1632727
252	0xbd68d320	-0.05684197
253	0xbda324e0	-0.07966018
254	0xbe44380f	-0.1916201
255	0x3c9c8fac	0.019111477

e_conv7.bias f4 [16]
0	0x3d01268f	0.031530913
1	0xbd8fa137	-0.07013171
2	0xbe92fb90	-0.28707552
3	0xbf1b52aa	-0.6067301
4	0x3e5a968b	0.2134649
5	0x3dc3508e	0.09536849
6	0x3b3778b3	0.0027995526
7	0xbd79532d	-0.06087034
8	0x3e4e0ab3	0.20121269
9	0x3e1e4688	0.15456593
10	0xbd8313f9	-0.06400294
11	0x3d14af20	0.036299825
12	0x3ebfd282	0.37465292
13	0x3d8e8251	0.0695845
14	0x3e03b4c0	0.1286192
15	0x3f06b22c	0.5261562
